…
I0620 11:55:15.716820 23419 net.cpp:313] The NetState phase (0) differed from the phase (1) specified by a rule in layer accuracy
I0620 11:55:15.716997 23419 net.cpp:49] Initializing net from parameters: 
name: "AlexNetForEmotion6"
state {
  phase: TRAIN
}
layer {
  name: "data"
  type: "ImageData"
  top: "data"
  top: "label"
  include {
    phase: TRAIN
  }
  transform_param {
    mirror: true
    crop_size: 227
    mean_file: "ilsvrc12.imagenet_mean.binaryproto"
  }
  image_data_param {
    source: "em6_posneg_train.txt"
    batch_size: 50
    new_height: 256
    new_width: 256
  }
}
layer {
  name: "conv1"
  type: "Convolution"
  bottom: "data"
  top: "conv1"
  param {
    lr_mult: 1
    decay_mult: 1
  }
  param {
    lr_mult: 2
    decay_mult: 0
  }
  convolution_param {
    num_output: 96
    kernel_size: 11
    stride: 4
    weight_filler {
      type: "gaussian"
      std: 0.01
    }
    bias_filler {
      type: "constant"
      value: 0
    }
  }
}
layer {
  name: "relu1"
  type: "ReLU"
  bottom: "conv1"
  top: "conv1"
}
layer {
  name: "norm1"
  type: "LRN"
  bottom: "conv1"
  top: "norm1"
  lrn_param {
    local_size: 5
    alpha: 0.0001
    beta: 0.75
  }
}
layer {
  name: "pool1"
  type: "Pooling"
  bottom: "norm1"
  top: "pool1"
  pooling_param {
    pool: MAX
    kernel_size: 3
    stride: 2
  }
}
layer {
  name: "conv2"
  type: "Convolution"
  bottom: "pool1"
  top: "conv2"
  param {
    lr_mult: 1
    decay_mult: 1
  }
  param {
    lr_mult: 2
    decay_mult: 0
  }
  convolution_param {
    num_output: 256
    pad: 2
    kernel_size: 5
    group: 2
    weight_filler {
      type: "gaussian"
      std: 0.01
    }
    bias_filler {
      type: "constant"
      value: 0.1
    }
  }
}
layer {
  name: "relu2"
  type: "ReLU"
  bottom: "conv2"
  top: "conv2"
}
layer {
  name: "norm2"
  type: "LRN"
  bottom: "conv2"
  top: "norm2"
  lrn_param {
    local_size: 5
    alpha: 0.0001
    beta: 0.75
  }
}
layer {
  name: "pool2"
  type: "Pooling"
  bottom: "norm2"
  top: "pool2"
  pooling_param {
    pool: MAX
    kernel_size: 3
    stride: 2
  }
}
layer {
  name: "conv3"
  type: "Convolution"
  bottom: "pool2"
  top: "conv3"
  param {
    lr_mult: 1
    decay_mult: 1
  }
  param {
    lr_mult: 2
    decay_mult: 0
  }
  convolution_param {
    num_output: 384
    pad: 1
    kernel_size: 3
    weight_filler {
      type: "gaussian"
      std: 0.01
    }
    bias_filler {
      type: "constant"
      value: 0
    }
  }
}
layer {
  name: "relu3"
  type: "ReLU"
  bottom: "conv3"
  top: "conv3"
}
layer {
  name: "conv4"
  type: "Convolution"
  bottom: "conv3"
  top: "conv4"
  param {
    lr_mult: 1
    decay_mult: 1
  }
  param {
    lr_mult: 2
    decay_mult: 0
  }
  convolution_param {
    num_output: 384
    pad: 1
    kernel_size: 3
    group: 2
    weight_filler {
      type: "gaussian"
      std: 0.01
    }
    bias_filler {
      type: "constant"
      value: 0.1
    }
  }
}
layer {
  name: "relu4"
  type: "ReLU"
  bottom: "conv4"
  top: "conv4"
}
layer {
  name: "conv5"
  type: "Convolution"
  bottom: "conv4"
  top: "conv5"
  param {
    lr_mult: 1
    decay_mult: 1
  }
  param {
    lr_mult: 2
    decay_mult: 0
  }
  convolution_param {
    num_output: 256
    pad: 1
    kernel_size: 3
    group: 2
    weight_filler {
      type: "gaussian"
      std: 0.01
    }
    bias_filler {
      type: "constant"
      value: 0.1
    }
  }
}
layer {
  name: "relu5"
  type: "ReLU"
  bottom: "conv5"
  top: "conv5"
}
layer {
  name: "pool5"
  type: "Pooling"
  bottom: "conv5"
  top: "pool5"
  pooling_param {
    pool: MAX
    kernel_size: 3
    stride: 2
  }
}
layer {
  name: "fc6"
  type: "InnerProduct"
  bottom: "pool5"
  top: "fc6"
  param {
    lr_mult: 1
    decay_mult: 1
  }
  param {
    lr_mult: 2
    decay_mult: 0
  }
  inner_product_param {
    num_output: 4096
    weight_filler {
      type: "gaussian"
      std: 0.005
    }
    bias_filler {
      type: "constant"
      value: 0.1
    }
  }
}
layer {
  name: "relu6"
  type: "ReLU"
  bottom: "fc6"
  top: "fc6"
}
layer {
  name: "drop6"
  type: "Dropout"
  bottom: "fc6"
  top: "fc6"
  dropout_param {
    dropout_ratio: 0.5
  }
}
layer {
  name: "fc7"
  type: "InnerProduct"
  bottom: "fc6"
  top: "fc7"
  param {
    lr_mult: 1
    decay_mult: 1
  }
  param {
    lr_mult: 2
    decay_mult: 0
  }
  inner_product_param {
    num_output: 4096
    weight_filler {
      type: "gaussian"
      std: 0.005
    }
    bias_filler {
      type: "constant"
      value: 0.1
    }
  }
}
layer {
  name: "relu7"
  type: "ReLU"
  bottom: "fc7"
  top: "fc7"
}
layer {
  name: "drop7"
  type: "Dropout"
  bottom: "fc7"
  top: "fc7"
  dropout_param {
    dropout_ratio: 0.5
  }
}
layer {
  name: "fc8_emotion6"
  type: "InnerProduct"
  bottom: "fc7"
  top: "fc8_emotion6"
  param {
    lr_mult: 10
    decay_mult: 1
  }
  param {
    lr_mult: 20
    decay_mult: 0
  }
  inner_product_param {
    num_output: 2
    weight_filler {
      type: "gaussian"
      std: 0.01
    }
    bias_filler {
      type: "constant"
      value: 0
    }
  }
}
layer {
  name: "loss"
  type: "SoftmaxWithLoss"
  bottom: "fc8_emotion6"
  bottom: "label"
  top: "loss"
}
I0620 11:55:15.717102 23419 layer_factory.hpp:77] Creating layer data
I0620 11:55:15.717133 23419 net.cpp:91] Creating Layer data
I0620 11:55:15.717140 23419 net.cpp:399] data -> data
I0620 11:55:15.717166 23419 net.cpp:399] data -> label
I0620 11:55:15.717185 23419 data_transformer.cpp:25] Loading mean file from: ilsvrc12.imagenet_mean.binaryproto
I0620 11:55:15.727609 23419 image_data_layer.cpp:38] Opening file em6_posneg_train.txt
I0620 11:55:15.728349 23419 image_data_layer.cpp:58] A total of 1583 images.
I0620 11:55:15.733950 23419 image_data_layer.cpp:85] output data size: 50,3,227,227
I0620 11:55:15.794648 23419 net.cpp:141] Setting up data
I0620 11:55:15.794677 23419 net.cpp:148] Top shape: 50 3 227 227 (7729350)
I0620 11:55:15.794682 23419 net.cpp:148] Top shape: 50 (50)
I0620 11:55:15.794684 23419 net.cpp:156] Memory required for data: 30917600
I0620 11:55:15.794692 23419 layer_factory.hpp:77] Creating layer conv1
I0620 11:55:15.794713 23419 net.cpp:91] Creating Layer conv1
I0620 11:55:15.794718 23419 net.cpp:425] conv1 <- data
I0620 11:55:15.794728 23419 net.cpp:399] conv1 -> conv1
I0620 11:55:16.027912 23419 net.cpp:141] Setting up conv1
I0620 11:55:16.027940 23419 net.cpp:148] Top shape: 50 96 55 55 (14520000)
I0620 11:55:16.027943 23419 net.cpp:156] Memory required for data: 88997600
I0620 11:55:16.027962 23419 layer_factory.hpp:77] Creating layer relu1
I0620 11:55:16.027972 23419 net.cpp:91] Creating Layer relu1
I0620 11:55:16.027976 23419 net.cpp:425] relu1 <- conv1
I0620 11:55:16.027981 23419 net.cpp:386] relu1 -> conv1 (in-place)
I0620 11:55:16.028213 23419 net.cpp:141] Setting up relu1
I0620 11:55:16.028223 23419 net.cpp:148] Top shape: 50 96 55 55 (14520000)
I0620 11:55:16.028225 23419 net.cpp:156] Memory required for data: 147077600
I0620 11:55:16.028229 23419 layer_factory.hpp:77] Creating layer norm1
I0620 11:55:16.028237 23419 net.cpp:91] Creating Layer norm1
I0620 11:55:16.028240 23419 net.cpp:425] norm1 <- conv1
I0620 11:55:16.028244 23419 net.cpp:399] norm1 -> norm1
I0620 11:55:16.028395 23419 net.cpp:141] Setting up norm1
I0620 11:55:16.028403 23419 net.cpp:148] Top shape: 50 96 55 55 (14520000)
I0620 11:55:16.028406 23419 net.cpp:156] Memory required for data: 205157600
I0620 11:55:16.028409 23419 layer_factory.hpp:77] Creating layer pool1
I0620 11:55:16.028415 23419 net.cpp:91] Creating Layer pool1
I0620 11:55:16.028424 23419 net.cpp:425] pool1 <- norm1
I0620 11:55:16.028437 23419 net.cpp:399] pool1 -> pool1
I0620 11:55:16.028473 23419 net.cpp:141] Setting up pool1
I0620 11:55:16.028481 23419 net.cpp:148] Top shape: 50 96 27 27 (3499200)
I0620 11:55:16.028482 23419 net.cpp:156] Memory required for data: 219154400
I0620 11:55:16.028486 23419 layer_factory.hpp:77] Creating layer conv2
I0620 11:55:16.028494 23419 net.cpp:91] Creating Layer conv2
I0620 11:55:16.028497 23419 net.cpp:425] conv2 <- pool1
I0620 11:55:16.028501 23419 net.cpp:399] conv2 -> conv2
I0620 11:55:16.032824 23419 net.cpp:141] Setting up conv2
I0620 11:55:16.032837 23419 net.cpp:148] Top shape: 50 256 27 27 (9331200)
I0620 11:55:16.032840 23419 net.cpp:156] Memory required for data: 256479200
I0620 11:55:16.032848 23419 layer_factory.hpp:77] Creating layer relu2
I0620 11:55:16.032855 23419 net.cpp:91] Creating Layer relu2
I0620 11:55:16.032857 23419 net.cpp:425] relu2 <- conv2
I0620 11:55:16.032861 23419 net.cpp:386] relu2 -> conv2 (in-place)
I0620 11:55:16.032997 23419 net.cpp:141] Setting up relu2
I0620 11:55:16.033005 23419 net.cpp:148] Top shape: 50 256 27 27 (9331200)
I0620 11:55:16.033009 23419 net.cpp:156] Memory required for data: 293804000
I0620 11:55:16.033010 23419 layer_factory.hpp:77] Creating layer norm2
I0620 11:55:16.033016 23419 net.cpp:91] Creating Layer norm2
I0620 11:55:16.033020 23419 net.cpp:425] norm2 <- conv2
I0620 11:55:16.033025 23419 net.cpp:399] norm2 -> norm2
I0620 11:55:16.033272 23419 net.cpp:141] Setting up norm2
I0620 11:55:16.033282 23419 net.cpp:148] Top shape: 50 256 27 27 (9331200)
I0620 11:55:16.033284 23419 net.cpp:156] Memory required for data: 331128800
I0620 11:55:16.033288 23419 layer_factory.hpp:77] Creating layer pool2
I0620 11:55:16.033293 23419 net.cpp:91] Creating Layer pool2
I0620 11:55:16.033296 23419 net.cpp:425] pool2 <- norm2
I0620 11:55:16.033300 23419 net.cpp:399] pool2 -> pool2
I0620 11:55:16.033329 23419 net.cpp:141] Setting up pool2
I0620 11:55:16.033335 23419 net.cpp:148] Top shape: 50 256 13 13 (2163200)
I0620 11:55:16.033337 23419 net.cpp:156] Memory required for data: 339781600
I0620 11:55:16.033340 23419 layer_factory.hpp:77] Creating layer conv3
I0620 11:55:16.033347 23419 net.cpp:91] Creating Layer conv3
I0620 11:55:16.033350 23419 net.cpp:425] conv3 <- pool2
I0620 11:55:16.033354 23419 net.cpp:399] conv3 -> conv3
I0620 11:55:16.041916 23419 net.cpp:141] Setting up conv3
I0620 11:55:16.041934 23419 net.cpp:148] Top shape: 50 384 13 13 (3244800)
I0620 11:55:16.041939 23419 net.cpp:156] Memory required for data: 352760800
I0620 11:55:16.041946 23419 layer_factory.hpp:77] Creating layer relu3
I0620 11:55:16.041952 23419 net.cpp:91] Creating Layer relu3
I0620 11:55:16.041956 23419 net.cpp:425] relu3 <- conv3
I0620 11:55:16.041961 23419 net.cpp:386] relu3 -> conv3 (in-place)
I0620 11:55:16.042109 23419 net.cpp:141] Setting up relu3
I0620 11:55:16.042116 23419 net.cpp:148] Top shape: 50 384 13 13 (3244800)
I0620 11:55:16.042119 23419 net.cpp:156] Memory required for data: 365740000
I0620 11:55:16.042122 23419 layer_factory.hpp:77] Creating layer conv4
I0620 11:55:16.042130 23419 net.cpp:91] Creating Layer conv4
I0620 11:55:16.042134 23419 net.cpp:425] conv4 <- conv3
I0620 11:55:16.042140 23419 net.cpp:399] conv4 -> conv4
I0620 11:55:16.049366 23419 net.cpp:141] Setting up conv4
I0620 11:55:16.049379 23419 net.cpp:148] Top shape: 50 384 13 13 (3244800)
I0620 11:55:16.049383 23419 net.cpp:156] Memory required for data: 378719200
I0620 11:55:16.049389 23419 layer_factory.hpp:77] Creating layer relu4
I0620 11:55:16.049396 23419 net.cpp:91] Creating Layer relu4
I0620 11:55:16.049399 23419 net.cpp:425] relu4 <- conv4
I0620 11:55:16.049403 23419 net.cpp:386] relu4 -> conv4 (in-place)
I0620 11:55:16.049551 23419 net.cpp:141] Setting up relu4
I0620 11:55:16.049558 23419 net.cpp:148] Top shape: 50 384 13 13 (3244800)
I0620 11:55:16.049561 23419 net.cpp:156] Memory required for data: 391698400
I0620 11:55:16.049564 23419 layer_factory.hpp:77] Creating layer conv5
I0620 11:55:16.049579 23419 net.cpp:91] Creating Layer conv5
I0620 11:55:16.049592 23419 net.cpp:425] conv5 <- conv4
I0620 11:55:16.049597 23419 net.cpp:399] conv5 -> conv5
I0620 11:55:16.055076 23419 net.cpp:141] Setting up conv5
I0620 11:55:16.055090 23419 net.cpp:148] Top shape: 50 256 13 13 (2163200)
I0620 11:55:16.055094 23419 net.cpp:156] Memory required for data: 400351200
I0620 11:55:16.055104 23419 layer_factory.hpp:77] Creating layer relu5
I0620 11:55:16.055109 23419 net.cpp:91] Creating Layer relu5
I0620 11:55:16.055111 23419 net.cpp:425] relu5 <- conv5
I0620 11:55:16.055117 23419 net.cpp:386] relu5 -> conv5 (in-place)
I0620 11:55:16.055353 23419 net.cpp:141] Setting up relu5
I0620 11:55:16.055363 23419 net.cpp:148] Top shape: 50 256 13 13 (2163200)
I0620 11:55:16.055366 23419 net.cpp:156] Memory required for data: 409004000
I0620 11:55:16.055369 23419 layer_factory.hpp:77] Creating layer pool5
I0620 11:55:16.055375 23419 net.cpp:91] Creating Layer pool5
I0620 11:55:16.055378 23419 net.cpp:425] pool5 <- conv5
I0620 11:55:16.055384 23419 net.cpp:399] pool5 -> pool5
I0620 11:55:16.055423 23419 net.cpp:141] Setting up pool5
I0620 11:55:16.055429 23419 net.cpp:148] Top shape: 50 256 6 6 (460800)
I0620 11:55:16.055433 23419 net.cpp:156] Memory required for data: 410847200
I0620 11:55:16.055435 23419 layer_factory.hpp:77] Creating layer fc6
I0620 11:55:16.055444 23419 net.cpp:91] Creating Layer fc6
I0620 11:55:16.055447 23419 net.cpp:425] fc6 <- pool5
I0620 11:55:16.055451 23419 net.cpp:399] fc6 -> fc6
I0620 11:55:16.385617 23419 net.cpp:141] Setting up fc6
I0620 11:55:16.385645 23419 net.cpp:148] Top shape: 50 4096 (204800)
I0620 11:55:16.385648 23419 net.cpp:156] Memory required for data: 411666400
I0620 11:55:16.385658 23419 layer_factory.hpp:77] Creating layer relu6
I0620 11:55:16.385666 23419 net.cpp:91] Creating Layer relu6
I0620 11:55:16.385669 23419 net.cpp:425] relu6 <- fc6
I0620 11:55:16.385675 23419 net.cpp:386] relu6 -> fc6 (in-place)
I0620 11:55:16.385871 23419 net.cpp:141] Setting up relu6
I0620 11:55:16.385880 23419 net.cpp:148] Top shape: 50 4096 (204800)
I0620 11:55:16.385882 23419 net.cpp:156] Memory required for data: 412485600
I0620 11:55:16.385885 23419 layer_factory.hpp:77] Creating layer drop6
I0620 11:55:16.385891 23419 net.cpp:91] Creating Layer drop6
I0620 11:55:16.385895 23419 net.cpp:425] drop6 <- fc6
I0620 11:55:16.385900 23419 net.cpp:386] drop6 -> fc6 (in-place)
I0620 11:55:16.385929 23419 net.cpp:141] Setting up drop6
I0620 11:55:16.385934 23419 net.cpp:148] Top shape: 50 4096 (204800)
I0620 11:55:16.385936 23419 net.cpp:156] Memory required for data: 413304800
I0620 11:55:16.385939 23419 layer_factory.hpp:77] Creating layer fc7
I0620 11:55:16.385947 23419 net.cpp:91] Creating Layer fc7
I0620 11:55:16.385951 23419 net.cpp:425] fc7 <- fc6
I0620 11:55:16.385956 23419 net.cpp:399] fc7 -> fc7
I0620 11:55:16.533144 23419 net.cpp:141] Setting up fc7
I0620 11:55:16.533171 23419 net.cpp:148] Top shape: 50 4096 (204800)
I0620 11:55:16.533175 23419 net.cpp:156] Memory required for data: 414124000
I0620 11:55:16.533184 23419 layer_factory.hpp:77] Creating layer relu7
I0620 11:55:16.533192 23419 net.cpp:91] Creating Layer relu7
I0620 11:55:16.533195 23419 net.cpp:425] relu7 <- fc7
I0620 11:55:16.533201 23419 net.cpp:386] relu7 -> fc7 (in-place)
I0620 11:55:16.533556 23419 net.cpp:141] Setting up relu7
I0620 11:55:16.533567 23419 net.cpp:148] Top shape: 50 4096 (204800)
I0620 11:55:16.533571 23419 net.cpp:156] Memory required for data: 414943200
I0620 11:55:16.533573 23419 layer_factory.hpp:77] Creating layer drop7
I0620 11:55:16.533579 23419 net.cpp:91] Creating Layer drop7
I0620 11:55:16.533582 23419 net.cpp:425] drop7 <- fc7
I0620 11:55:16.533593 23419 net.cpp:386] drop7 -> fc7 (in-place)
I0620 11:55:16.533620 23419 net.cpp:141] Setting up drop7
I0620 11:55:16.533625 23419 net.cpp:148] Top shape: 50 4096 (204800)
I0620 11:55:16.533628 23419 net.cpp:156] Memory required for data: 415762400
I0620 11:55:16.533630 23419 layer_factory.hpp:77] Creating layer fc8_emotion6
I0620 11:55:16.533638 23419 net.cpp:91] Creating Layer fc8_emotion6
I0620 11:55:16.533648 23419 net.cpp:425] fc8_emotion6 <- fc7
I0620 11:55:16.533663 23419 net.cpp:399] fc8_emotion6 -> fc8_emotion6
I0620 11:55:16.534193 23419 net.cpp:141] Setting up fc8_emotion6
I0620 11:55:16.534203 23419 net.cpp:148] Top shape: 50 2 (100)
I0620 11:55:16.534204 23419 net.cpp:156] Memory required for data: 415762800
I0620 11:55:16.534210 23419 layer_factory.hpp:77] Creating layer loss
I0620 11:55:16.534215 23419 net.cpp:91] Creating Layer loss
I0620 11:55:16.534219 23419 net.cpp:425] loss <- fc8_emotion6
I0620 11:55:16.534222 23419 net.cpp:425] loss <- label
I0620 11:55:16.534229 23419 net.cpp:399] loss -> loss
I0620 11:55:16.534240 23419 layer_factory.hpp:77] Creating layer loss
…
I0620 11:55:16.534837 23419 net.cpp:313] The NetState phase (1) differed from the phase (0) specified by a rule in layer data
I0620 11:55:16.534976 23419 net.cpp:49] Initializing net from parameters: 
name: "AlexNetForEmotion6"
state {
  phase: TEST
}
layer {
  name: "data"
  type: "ImageData"
  top: "data"
  top: "label"
  include {
    phase: TEST
  }
  transform_param {
    mirror: false
    crop_size: 227
    mean_file: "ilsvrc12.imagenet_mean.binaryproto"
  }
  image_data_param {
    source: "em6_posneg_test.txt"
    batch_size: 50
    new_height: 256
    new_width: 256
  }
}
layer {
  name: "conv1"
  type: "Convolution"
  bottom: "data"
  top: "conv1"
  param {
    lr_mult: 1
    decay_mult: 1
  }
  param {
    lr_mult: 2
    decay_mult: 0
  }
  convolution_param {
    num_output: 96
    kernel_size: 11
    stride: 4
    weight_filler {
      type: "gaussian"
      std: 0.01
    }
    bias_filler {
      type: "constant"
      value: 0
    }
  }
}
layer {
  name: "relu1"
  type: "ReLU"
  bottom: "conv1"
  top: "conv1"
}
layer {
  name: "norm1"
  type: "LRN"
  bottom: "conv1"
  top: "norm1"
  lrn_param {
    local_size: 5
    alpha: 0.0001
    beta: 0.75
  }
}
layer {
  name: "pool1"
  type: "Pooling"
  bottom: "norm1"
  top: "pool1"
  pooling_param {
    pool: MAX
    kernel_size: 3
    stride: 2
  }
}
layer {
  name: "conv2"
  type: "Convolution"
  bottom: "pool1"
  top: "conv2"
  param {
    lr_mult: 1
    decay_mult: 1
  }
  param {
    lr_mult: 2
    decay_mult: 0
  }
  convolution_param {
    num_output: 256
    pad: 2
    kernel_size: 5
    group: 2
    weight_filler {
      type: "gaussian"
      std: 0.01
    }
    bias_filler {
      type: "constant"
      value: 0.1
    }
  }
}
layer {
  name: "relu2"
  type: "ReLU"
  bottom: "conv2"
  top: "conv2"
}
layer {
  name: "norm2"
  type: "LRN"
  bottom: "conv2"
  top: "norm2"
  lrn_param {
    local_size: 5
    alpha: 0.0001
    beta: 0.75
  }
}
layer {
  name: "pool2"
  type: "Pooling"
  bottom: "norm2"
  top: "pool2"
  pooling_param {
    pool: MAX
    kernel_size: 3
    stride: 2
  }
}
layer {
  name: "conv3"
  type: "Convolution"
  bottom: "pool2"
  top: "conv3"
  param {
    lr_mult: 1
    decay_mult: 1
  }
  param {
    lr_mult: 2
    decay_mult: 0
  }
  convolution_param {
    num_output: 384
    pad: 1
    kernel_size: 3
    weight_filler {
      type: "gaussian"
      std: 0.01
    }
    bias_filler {
      type: "constant"
      value: 0
    }
  }
}
layer {
  name: "relu3"
  type: "ReLU"
  bottom: "conv3"
  top: "conv3"
}
layer {
  name: "conv4"
  type: "Convolution"
  bottom: "conv3"
  top: "conv4"
  param {
    lr_mult: 1
    decay_mult: 1
  }
  param {
    lr_mult: 2
    decay_mult: 0
  }
  convolution_param {
    num_output: 384
    pad: 1
    kernel_size: 3
    group: 2
    weight_filler {
      type: "gaussian"
      std: 0.01
    }
    bias_filler {
      type: "constant"
      value: 0.1
    }
  }
}
layer {
  name: "relu4"
  type: "ReLU"
  bottom: "conv4"
  top: "conv4"
}
layer {
  name: "conv5"
  type: "Convolution"
  bottom: "conv4"
  top: "conv5"
  param {
    lr_mult: 1
    decay_mult: 1
  }
  param {
    lr_mult: 2
    decay_mult: 0
  }
  convolution_param {
    num_output: 256
    pad: 1
    kernel_size: 3
    group: 2
    weight_filler {
      type: "gaussian"
      std: 0.01
    }
    bias_filler {
      type: "constant"
      value: 0.1
    }
  }
}
layer {
  name: "relu5"
  type: "ReLU"
  bottom: "conv5"
  top: "conv5"
}
layer {
  name: "pool5"
  type: "Pooling"
  bottom: "conv5"
  top: "pool5"
  pooling_param {
    pool: MAX
    kernel_size: 3
    stride: 2
  }
}
layer {
  name: "fc6"
  type: "InnerProduct"
  bottom: "pool5"
  top: "fc6"
  param {
    lr_mult: 1
    decay_mult: 1
  }
  param {
    lr_mult: 2
    decay_mult: 0
  }
  inner_product_param {
    num_output: 4096
    weight_filler {
      type: "gaussian"
      std: 0.005
    }
    bias_filler {
      type: "constant"
      value: 0.1
    }
  }
}
layer {
  name: "relu6"
  type: "ReLU"
  bottom: "fc6"
  top: "fc6"
}
layer {
  name: "drop6"
  type: "Dropout"
  bottom: "fc6"
  top: "fc6"
  dropout_param {
    dropout_ratio: 0.5
  }
}
layer {
  name: "fc7"
  type: "InnerProduct"
  bottom: "fc6"
  top: "fc7"
  param {
    lr_mult: 1
    decay_mult: 1
  }
  param {
    lr_mult: 2
    decay_mult: 0
  }
  inner_product_param {
    num_output: 4096
    weight_filler {
      type: "gaussian"
      std: 0.005
    }
    bias_filler {
      type: "constant"
      value: 0.1
    }
  }
}
layer {
  name: "relu7"
  type: "ReLU"
  bottom: "fc7"
  top: "fc7"
}
layer {
  name: "drop7"
  type: "Dropout"
  bottom: "fc7"
  top: "fc7"
  dropout_param {
    dropout_ratio: 0.5
  }
}
layer {
  name: "fc8_emotion6"
  type: "InnerProduct"
  bottom: "fc7"
  top: "fc8_emotion6"
  param {
    lr_mult: 10
    decay_mult: 1
  }
  param {
    lr_mult: 20
    decay_mult: 0
  }
  inner_product_param {
    num_output: 2
    weight_filler {
      type: "gaussian"
      std: 0.01
    }
    bias_filler {
      type: "constant"
      value: 0
    }
  }
}
layer {
  name: "accuracy"
  type: "Accuracy"
  bottom: "fc8_emotion6"
  bottom: "label"
  top: "accuracy"
  include {
    phase: TEST
  }
}
layer {
  name: "loss"
  type: "SoftmaxWithLoss"
  bottom: "fc8_emotion6"
  bottom: "label"
  top: "loss"
}
I0620 11:55:16.535070 23419 layer_factory.hpp:77] Creating layer data
I0620 11:55:16.535084 23419 net.cpp:91] Creating Layer data
I0620 11:55:16.535089 23419 net.cpp:399] data -> data
I0620 11:55:16.535096 23419 net.cpp:399] data -> label
I0620 11:55:16.535102 23419 data_transformer.cpp:25] Loading mean file from: ilsvrc12.imagenet_mean.binaryproto
I0620 11:55:16.536711 23419 image_data_layer.cpp:38] Opening file em6_posneg_test.txt
I0620 11:55:16.536844 23419 image_data_layer.cpp:58] A total of 397 images.
I0620 11:55:16.540210 23419 image_data_layer.cpp:85] output data size: 50,3,227,227
I0620 11:55:16.596918 23419 net.cpp:141] Setting up data
I0620 11:55:16.596949 23419 net.cpp:148] Top shape: 50 3 227 227 (7729350)
I0620 11:55:16.596954 23419 net.cpp:148] Top shape: 50 (50)
I0620 11:55:16.596956 23419 net.cpp:156] Memory required for data: 30917600
I0620 11:55:16.596962 23419 layer_factory.hpp:77] Creating layer label_data_1_split
I0620 11:55:16.596973 23419 net.cpp:91] Creating Layer label_data_1_split
I0620 11:55:16.596977 23419 net.cpp:425] label_data_1_split <- label
I0620 11:55:16.596983 23419 net.cpp:399] label_data_1_split -> label_data_1_split_0
I0620 11:55:16.596992 23419 net.cpp:399] label_data_1_split -> label_data_1_split_1
I0620 11:55:16.597076 23419 net.cpp:141] Setting up label_data_1_split
I0620 11:55:16.597084 23419 net.cpp:148] Top shape: 50 (50)
I0620 11:55:16.597087 23419 net.cpp:148] Top shape: 50 (50)
I0620 11:55:16.597090 23419 net.cpp:156] Memory required for data: 30918000
I0620 11:55:16.597092 23419 layer_factory.hpp:77] Creating layer conv1
I0620 11:55:16.597102 23419 net.cpp:91] Creating Layer conv1
I0620 11:55:16.597105 23419 net.cpp:425] conv1 <- data
I0620 11:55:16.597110 23419 net.cpp:399] conv1 -> conv1
I0620 11:55:16.598304 23419 net.cpp:141] Setting up conv1
I0620 11:55:16.598316 23419 net.cpp:148] Top shape: 50 96 55 55 (14520000)
I0620 11:55:16.598320 23419 net.cpp:156] Memory required for data: 88998000
I0620 11:55:16.598328 23419 layer_factory.hpp:77] Creating layer relu1
I0620 11:55:16.598335 23419 net.cpp:91] Creating Layer relu1
I0620 11:55:16.598337 23419 net.cpp:425] relu1 <- conv1
I0620 11:55:16.598341 23419 net.cpp:386] relu1 -> conv1 (in-place)
I0620 11:55:16.598569 23419 net.cpp:141] Setting up relu1
I0620 11:55:16.598579 23419 net.cpp:148] Top shape: 50 96 55 55 (14520000)
I0620 11:55:16.598582 23419 net.cpp:156] Memory required for data: 147078000
I0620 11:55:16.598584 23419 layer_factory.hpp:77] Creating layer norm1
I0620 11:55:16.598592 23419 net.cpp:91] Creating Layer norm1
I0620 11:55:16.598595 23419 net.cpp:425] norm1 <- conv1
I0620 11:55:16.598599 23419 net.cpp:399] norm1 -> norm1
I0620 11:55:16.598757 23419 net.cpp:141] Setting up norm1
I0620 11:55:16.598763 23419 net.cpp:148] Top shape: 50 96 55 55 (14520000)
I0620 11:55:16.598767 23419 net.cpp:156] Memory required for data: 205158000
I0620 11:55:16.598769 23419 layer_factory.hpp:77] Creating layer pool1
I0620 11:55:16.598774 23419 net.cpp:91] Creating Layer pool1
I0620 11:55:16.598778 23419 net.cpp:425] pool1 <- norm1
I0620 11:55:16.598781 23419 net.cpp:399] pool1 -> pool1
I0620 11:55:16.598812 23419 net.cpp:141] Setting up pool1
I0620 11:55:16.598817 23419 net.cpp:148] Top shape: 50 96 27 27 (3499200)
I0620 11:55:16.598819 23419 net.cpp:156] Memory required for data: 219154800
I0620 11:55:16.598822 23419 layer_factory.hpp:77] Creating layer conv2
I0620 11:55:16.598829 23419 net.cpp:91] Creating Layer conv2
I0620 11:55:16.598832 23419 net.cpp:425] conv2 <- pool1
I0620 11:55:16.598836 23419 net.cpp:399] conv2 -> conv2
I0620 11:55:16.611675 23419 net.cpp:141] Setting up conv2
I0620 11:55:16.611688 23419 net.cpp:148] Top shape: 50 256 27 27 (9331200)
I0620 11:55:16.611691 23419 net.cpp:156] Memory required for data: 256479600
I0620 11:55:16.611699 23419 layer_factory.hpp:77] Creating layer relu2
I0620 11:55:16.611704 23419 net.cpp:91] Creating Layer relu2
I0620 11:55:16.611716 23419 net.cpp:425] relu2 <- conv2
I0620 11:55:16.611728 23419 net.cpp:386] relu2 -> conv2 (in-place)
I0620 11:55:16.611867 23419 net.cpp:141] Setting up relu2
I0620 11:55:16.611874 23419 net.cpp:148] Top shape: 50 256 27 27 (9331200)
I0620 11:55:16.611877 23419 net.cpp:156] Memory required for data: 293804400
I0620 11:55:16.611881 23419 layer_factory.hpp:77] Creating layer norm2
I0620 11:55:16.611887 23419 net.cpp:91] Creating Layer norm2
I0620 11:55:16.611889 23419 net.cpp:425] norm2 <- conv2
I0620 11:55:16.611894 23419 net.cpp:399] norm2 -> norm2
I0620 11:55:16.612149 23419 net.cpp:141] Setting up norm2
I0620 11:55:16.612160 23419 net.cpp:148] Top shape: 50 256 27 27 (9331200)
I0620 11:55:16.612162 23419 net.cpp:156] Memory required for data: 331129200
I0620 11:55:16.612165 23419 layer_factory.hpp:77] Creating layer pool2
I0620 11:55:16.612171 23419 net.cpp:91] Creating Layer pool2
I0620 11:55:16.612174 23419 net.cpp:425] pool2 <- norm2
I0620 11:55:16.612179 23419 net.cpp:399] pool2 -> pool2
I0620 11:55:16.612210 23419 net.cpp:141] Setting up pool2
I0620 11:55:16.612216 23419 net.cpp:148] Top shape: 50 256 13 13 (2163200)
I0620 11:55:16.612218 23419 net.cpp:156] Memory required for data: 339782000
I0620 11:55:16.612221 23419 layer_factory.hpp:77] Creating layer conv3
I0620 11:55:16.612228 23419 net.cpp:91] Creating Layer conv3
I0620 11:55:16.612231 23419 net.cpp:425] conv3 <- pool2
I0620 11:55:16.612236 23419 net.cpp:399] conv3 -> conv3
I0620 11:55:16.620823 23419 net.cpp:141] Setting up conv3
I0620 11:55:16.620841 23419 net.cpp:148] Top shape: 50 384 13 13 (3244800)
I0620 11:55:16.620843 23419 net.cpp:156] Memory required for data: 352761200
I0620 11:55:16.620852 23419 layer_factory.hpp:77] Creating layer relu3
I0620 11:55:16.620858 23419 net.cpp:91] Creating Layer relu3
I0620 11:55:16.620862 23419 net.cpp:425] relu3 <- conv3
I0620 11:55:16.620867 23419 net.cpp:386] relu3 -> conv3 (in-place)
I0620 11:55:16.621011 23419 net.cpp:141] Setting up relu3
I0620 11:55:16.621018 23419 net.cpp:148] Top shape: 50 384 13 13 (3244800)
I0620 11:55:16.621021 23419 net.cpp:156] Memory required for data: 365740400
I0620 11:55:16.621023 23419 layer_factory.hpp:77] Creating layer conv4
I0620 11:55:16.621031 23419 net.cpp:91] Creating Layer conv4
I0620 11:55:16.621034 23419 net.cpp:425] conv4 <- conv3
I0620 11:55:16.621039 23419 net.cpp:399] conv4 -> conv4
I0620 11:55:16.628319 23419 net.cpp:141] Setting up conv4
I0620 11:55:16.628332 23419 net.cpp:148] Top shape: 50 384 13 13 (3244800)
I0620 11:55:16.628335 23419 net.cpp:156] Memory required for data: 378719600
I0620 11:55:16.628341 23419 layer_factory.hpp:77] Creating layer relu4
I0620 11:55:16.628347 23419 net.cpp:91] Creating Layer relu4
I0620 11:55:16.628350 23419 net.cpp:425] relu4 <- conv4
I0620 11:55:16.628355 23419 net.cpp:386] relu4 -> conv4 (in-place)
I0620 11:55:16.628595 23419 net.cpp:141] Setting up relu4
I0620 11:55:16.628605 23419 net.cpp:148] Top shape: 50 384 13 13 (3244800)
I0620 11:55:16.628607 23419 net.cpp:156] Memory required for data: 391698800
I0620 11:55:16.628610 23419 layer_factory.hpp:77] Creating layer conv5
I0620 11:55:16.628618 23419 net.cpp:91] Creating Layer conv5
I0620 11:55:16.628621 23419 net.cpp:425] conv5 <- conv4
I0620 11:55:16.628626 23419 net.cpp:399] conv5 -> conv5
I0620 11:55:16.633954 23419 net.cpp:141] Setting up conv5
I0620 11:55:16.633966 23419 net.cpp:148] Top shape: 50 256 13 13 (2163200)
I0620 11:55:16.633970 23419 net.cpp:156] Memory required for data: 400351600
I0620 11:55:16.633978 23419 layer_factory.hpp:77] Creating layer relu5
I0620 11:55:16.633983 23419 net.cpp:91] Creating Layer relu5
I0620 11:55:16.633986 23419 net.cpp:425] relu5 <- conv5
I0620 11:55:16.633991 23419 net.cpp:386] relu5 -> conv5 (in-place)
I0620 11:55:16.634133 23419 net.cpp:141] Setting up relu5
I0620 11:55:16.634141 23419 net.cpp:148] Top shape: 50 256 13 13 (2163200)
I0620 11:55:16.634145 23419 net.cpp:156] Memory required for data: 409004400
I0620 11:55:16.634147 23419 layer_factory.hpp:77] Creating layer pool5
I0620 11:55:16.634161 23419 net.cpp:91] Creating Layer pool5
I0620 11:55:16.634172 23419 net.cpp:425] pool5 <- conv5
I0620 11:55:16.634177 23419 net.cpp:399] pool5 -> pool5
I0620 11:55:16.634219 23419 net.cpp:141] Setting up pool5
I0620 11:55:16.634225 23419 net.cpp:148] Top shape: 50 256 6 6 (460800)
I0620 11:55:16.634228 23419 net.cpp:156] Memory required for data: 410847600
I0620 11:55:16.634230 23419 layer_factory.hpp:77] Creating layer fc6
I0620 11:55:16.634238 23419 net.cpp:91] Creating Layer fc6
I0620 11:55:16.634240 23419 net.cpp:425] fc6 <- pool5
I0620 11:55:16.634244 23419 net.cpp:399] fc6 -> fc6
I0620 11:55:16.937650 23419 net.cpp:141] Setting up fc6
I0620 11:55:16.937675 23419 net.cpp:148] Top shape: 50 4096 (204800)
I0620 11:55:16.937679 23419 net.cpp:156] Memory required for data: 411666800
I0620 11:55:16.937685 23419 layer_factory.hpp:77] Creating layer relu6
I0620 11:55:16.937693 23419 net.cpp:91] Creating Layer relu6
I0620 11:55:16.937697 23419 net.cpp:425] relu6 <- fc6
I0620 11:55:16.937702 23419 net.cpp:386] relu6 -> fc6 (in-place)
I0620 11:55:16.938025 23419 net.cpp:141] Setting up relu6
I0620 11:55:16.938035 23419 net.cpp:148] Top shape: 50 4096 (204800)
I0620 11:55:16.938037 23419 net.cpp:156] Memory required for data: 412486000
I0620 11:55:16.938040 23419 layer_factory.hpp:77] Creating layer drop6
I0620 11:55:16.938045 23419 net.cpp:91] Creating Layer drop6
I0620 11:55:16.938048 23419 net.cpp:425] drop6 <- fc6
I0620 11:55:16.938052 23419 net.cpp:386] drop6 -> fc6 (in-place)
I0620 11:55:16.938081 23419 net.cpp:141] Setting up drop6
I0620 11:55:16.938086 23419 net.cpp:148] Top shape: 50 4096 (204800)
I0620 11:55:16.938087 23419 net.cpp:156] Memory required for data: 413305200
I0620 11:55:16.938089 23419 layer_factory.hpp:77] Creating layer fc7
I0620 11:55:16.938096 23419 net.cpp:91] Creating Layer fc7
I0620 11:55:16.938097 23419 net.cpp:425] fc7 <- fc6
I0620 11:55:16.938102 23419 net.cpp:399] fc7 -> fc7
I0620 11:55:17.066443 23419 net.cpp:141] Setting up fc7
I0620 11:55:17.066468 23419 net.cpp:148] Top shape: 50 4096 (204800)
I0620 11:55:17.066470 23419 net.cpp:156] Memory required for data: 414124400
I0620 11:55:17.066478 23419 layer_factory.hpp:77] Creating layer relu7
I0620 11:55:17.066485 23419 net.cpp:91] Creating Layer relu7
I0620 11:55:17.066489 23419 net.cpp:425] relu7 <- fc7
I0620 11:55:17.066494 23419 net.cpp:386] relu7 -> fc7 (in-place)
I0620 11:55:17.066673 23419 net.cpp:141] Setting up relu7
I0620 11:55:17.066680 23419 net.cpp:148] Top shape: 50 4096 (204800)
I0620 11:55:17.066682 23419 net.cpp:156] Memory required for data: 414943600
I0620 11:55:17.066685 23419 layer_factory.hpp:77] Creating layer drop7
I0620 11:55:17.066690 23419 net.cpp:91] Creating Layer drop7
I0620 11:55:17.066692 23419 net.cpp:425] drop7 <- fc7
I0620 11:55:17.066696 23419 net.cpp:386] drop7 -> fc7 (in-place)
I0620 11:55:17.066722 23419 net.cpp:141] Setting up drop7
I0620 11:55:17.066727 23419 net.cpp:148] Top shape: 50 4096 (204800)
I0620 11:55:17.066730 23419 net.cpp:156] Memory required for data: 415762800
I0620 11:55:17.066731 23419 layer_factory.hpp:77] Creating layer fc8_emotion6
I0620 11:55:17.066737 23419 net.cpp:91] Creating Layer fc8_emotion6
I0620 11:55:17.066740 23419 net.cpp:425] fc8_emotion6 <- fc7
I0620 11:55:17.066745 23419 net.cpp:399] fc8_emotion6 -> fc8_emotion6
I0620 11:55:17.066884 23419 net.cpp:141] Setting up fc8_emotion6
I0620 11:55:17.066890 23419 net.cpp:148] Top shape: 50 2 (100)
I0620 11:55:17.066892 23419 net.cpp:156] Memory required for data: 415763200
I0620 11:55:17.066896 23419 layer_factory.hpp:77] Creating layer fc8_emotion6_fc8_emotion6_0_split
I0620 11:55:17.066901 23419 net.cpp:91] Creating Layer fc8_emotion6_fc8_emotion6_0_split
I0620 11:55:17.066905 23419 net.cpp:425] fc8_emotion6_fc8_emotion6_0_split <- fc8_emotion6
I0620 11:55:17.066908 23419 net.cpp:399] fc8_emotion6_fc8_emotion6_0_split -> fc8_emotion6_fc8_emotion6_0_split_0
I0620 11:55:17.066912 23419 net.cpp:399] fc8_emotion6_fc8_emotion6_0_split -> fc8_emotion6_fc8_emotion6_0_split_1
I0620 11:55:17.066941 23419 net.cpp:141] Setting up fc8_emotion6_fc8_emotion6_0_split
I0620 11:55:17.066956 23419 net.cpp:148] Top shape: 50 2 (100)
I0620 11:55:17.066965 23419 net.cpp:148] Top shape: 50 2 (100)
I0620 11:55:17.066968 23419 net.cpp:156] Memory required for data: 415764000
I0620 11:55:17.066970 23419 layer_factory.hpp:77] Creating layer accuracy
I0620 11:55:17.066977 23419 net.cpp:91] Creating Layer accuracy
I0620 11:55:17.066978 23419 net.cpp:425] accuracy <- fc8_emotion6_fc8_emotion6_0_split_0
I0620 11:55:17.066982 23419 net.cpp:425] accuracy <- label_data_1_split_0
I0620 11:55:17.066985 23419 net.cpp:399] accuracy -> accuracy
…
