…
I0711 10:26:40.498227  2597 net.cpp:313] The NetState phase (0) differed from the phase (1) specified by a rule in layer accuracy
I0711 10:26:40.498343  2597 net.cpp:49] Initializing net from parameters: 
name: "Places205ForEmotion6"
state {
  phase: TRAIN
}
layer {
  name: "data"
  type: "ImageData"
  top: "data"
  top: "label"
  include {
    phase: TRAIN
  }
  transform_param {
    mirror: true
    crop_size: 227
    mean_file: "places205.imagenet_mean.binaryproto"
  }
  image_data_param {
    source: "em6_posneg_train.txt"
    batch_size: 50
    new_height: 256
    new_width: 256
  }
}
layer {
  name: "conv1"
  type: "Convolution"
  bottom: "data"
  top: "conv1"
  param {
    lr_mult: 1
    decay_mult: 1
  }
  param {
    lr_mult: 2
    decay_mult: 0
  }
  convolution_param {
    num_output: 96
    kernel_size: 11
    stride: 4
    weight_filler {
      type: "gaussian"
      std: 0.01
    }
    bias_filler {
      type: "constant"
      value: 0
    }
  }
}
layer {
  name: "relu1"
  type: "ReLU"
  bottom: "conv1"
  top: "conv1"
}
layer {
  name: "pool1"
  type: "Pooling"
  bottom: "conv1"
  top: "pool1"
  pooling_param {
    pool: MAX
    kernel_size: 3
    stride: 2
  }
}
layer {
  name: "norm1"
  type: "LRN"
  bottom: "pool1"
  top: "norm1"
  lrn_param {
    local_size: 5
    alpha: 0.0001
    beta: 0.75
  }
}
layer {
  name: "conv2"
  type: "Convolution"
  bottom: "norm1"
  top: "conv2"
  param {
    lr_mult: 1
    decay_mult: 1
  }
  param {
    lr_mult: 2
    decay_mult: 0
  }
  convolution_param {
    num_output: 256
    pad: 2
    kernel_size: 5
    group: 2
    weight_filler {
      type: "gaussian"
      std: 0.01
    }
    bias_filler {
      type: "constant"
      value: 1
    }
  }
}
layer {
  name: "relu2"
  type: "ReLU"
  bottom: "conv2"
  top: "conv2"
}
layer {
  name: "pool2"
  type: "Pooling"
  bottom: "conv2"
  top: "pool2"
  pooling_param {
    pool: MAX
    kernel_size: 3
    stride: 2
  }
}
layer {
  name: "norm2"
  type: "LRN"
  bottom: "pool2"
  top: "norm2"
  lrn_param {
    local_size: 5
    alpha: 0.0001
    beta: 0.75
  }
}
layer {
  name: "conv3"
  type: "Convolution"
  bottom: "norm2"
  top: "conv3"
  param {
    lr_mult: 1
    decay_mult: 1
  }
  param {
    lr_mult: 2
    decay_mult: 0
  }
  convolution_param {
    num_output: 384
    pad: 1
    kernel_size: 3
    weight_filler {
      type: "gaussian"
      std: 0.01
    }
    bias_filler {
      type: "constant"
      value: 0
    }
  }
}
layer {
  name: "relu3"
  type: "ReLU"
  bottom: "conv3"
  top: "conv3"
}
layer {
  name: "conv4"
  type: "Convolution"
  bottom: "conv3"
  top: "conv4"
  param {
    lr_mult: 1
    decay_mult: 1
  }
  param {
    lr_mult: 2
    decay_mult: 0
  }
  convolution_param {
    num_output: 384
    pad: 1
    kernel_size: 3
    group: 2
    weight_filler {
      type: "gaussian"
      std: 0.01
    }
    bias_filler {
      type: "constant"
      value: 1
    }
  }
}
layer {
  name: "relu4"
  type: "ReLU"
  bottom: "conv4"
  top: "conv4"
}
layer {
  name: "conv5"
  type: "Convolution"
  bottom: "conv4"
  top: "conv5"
  param {
    lr_mult: 1
    decay_mult: 1
  }
  param {
    lr_mult: 2
    decay_mult: 0
  }
  convolution_param {
    num_output: 256
    pad: 1
    kernel_size: 3
    group: 2
    weight_filler {
      type: "gaussian"
      std: 0.01
    }
    bias_filler {
      type: "constant"
      value: 1
    }
  }
}
layer {
  name: "relu5"
  type: "ReLU"
  bottom: "conv5"
  top: "conv5"
}
layer {
  name: "pool5"
  type: "Pooling"
  bottom: "conv5"
  top: "pool5"
  pooling_param {
    pool: MAX
    kernel_size: 3
    stride: 2
  }
}
layer {
  name: "fc6"
  type: "InnerProduct"
  bottom: "pool5"
  top: "fc6"
  param {
    lr_mult: 1
    decay_mult: 1
  }
  param {
    lr_mult: 2
    decay_mult: 0
  }
  inner_product_param {
    num_output: 4096
    weight_filler {
      type: "gaussian"
      std: 0.005
    }
    bias_filler {
      type: "constant"
      value: 1
    }
  }
}
layer {
  name: "relu6"
  type: "ReLU"
  bottom: "fc6"
  top: "fc6"
}
layer {
  name: "drop6"
  type: "Dropout"
  bottom: "fc6"
  top: "fc6"
  dropout_param {
    dropout_ratio: 0.5
  }
}
layer {
  name: "fc7"
  type: "InnerProduct"
  bottom: "fc6"
  top: "fc7"
  param {
    lr_mult: 1
    decay_mult: 1
  }
  param {
    lr_mult: 2
    decay_mult: 0
  }
  inner_product_param {
    num_output: 4096
    weight_filler {
      type: "gaussian"
      std: 0.005
    }
    bias_filler {
      type: "constant"
      value: 1
    }
  }
}
layer {
  name: "relu7"
  type: "ReLU"
  bottom: "fc7"
  top: "fc7"
}
layer {
  name: "drop7"
  type: "Dropout"
  bottom: "fc7"
  top: "fc7"
  dropout_param {
    dropout_ratio: 0.5
  }
}
layer {
  name: "fc8_emotion6"
  type: "InnerProduct"
  bottom: "fc7"
  top: "fc8_emotion6"
  param {
    lr_mult: 1
    decay_mult: 1
  }
  param {
    lr_mult: 2
    decay_mult: 0
  }
  inner_product_param {
    num_output: 2
    weight_filler {
      type: "gaussian"
      std: 0.01
    }
    bias_filler {
      type: "constant"
      value: 0
    }
  }
}
layer {
  name: "loss"
  type: "SoftmaxWithLoss"
  bottom: "fc8_emotion6"
  bottom: "label"
  top: "loss"
}
I0711 10:26:40.498420  2597 layer_factory.hpp:77] Creating layer data
I0711 10:26:40.498441  2597 net.cpp:91] Creating Layer data
I0711 10:26:40.498446  2597 net.cpp:399] data -> data
I0711 10:26:40.498466  2597 net.cpp:399] data -> label
I0711 10:26:40.498476  2597 data_transformer.cpp:25] Loading mean file from: places205.imagenet_mean.binaryproto
I0711 10:26:40.506108  2597 image_data_layer.cpp:38] Opening file em6_posneg_train.txt
I0711 10:26:40.506618  2597 image_data_layer.cpp:58] A total of 1583 images.
I0711 10:26:40.510303  2597 image_data_layer.cpp:85] output data size: 50,3,227,227
I0711 10:26:40.567667  2597 net.cpp:141] Setting up data
I0711 10:26:40.567689  2597 net.cpp:148] Top shape: 50 3 227 227 (7729350)
I0711 10:26:40.567693  2597 net.cpp:148] Top shape: 50 (50)
I0711 10:26:40.567695  2597 net.cpp:156] Memory required for data: 30917600
I0711 10:26:40.567703  2597 layer_factory.hpp:77] Creating layer conv1
I0711 10:26:40.567721  2597 net.cpp:91] Creating Layer conv1
I0711 10:26:40.567725  2597 net.cpp:425] conv1 <- data
I0711 10:26:40.567735  2597 net.cpp:399] conv1 -> conv1
I0711 10:26:40.783921  2597 net.cpp:141] Setting up conv1
I0711 10:26:40.783943  2597 net.cpp:148] Top shape: 50 96 55 55 (14520000)
I0711 10:26:40.783946  2597 net.cpp:156] Memory required for data: 88997600
I0711 10:26:40.783964  2597 layer_factory.hpp:77] Creating layer relu1
I0711 10:26:40.783974  2597 net.cpp:91] Creating Layer relu1
I0711 10:26:40.783977  2597 net.cpp:425] relu1 <- conv1
I0711 10:26:40.783982  2597 net.cpp:386] relu1 -> conv1 (in-place)
I0711 10:26:40.784191  2597 net.cpp:141] Setting up relu1
I0711 10:26:40.784200  2597 net.cpp:148] Top shape: 50 96 55 55 (14520000)
I0711 10:26:40.784203  2597 net.cpp:156] Memory required for data: 147077600
I0711 10:26:40.784205  2597 layer_factory.hpp:77] Creating layer pool1
I0711 10:26:40.784211  2597 net.cpp:91] Creating Layer pool1
I0711 10:26:40.784214  2597 net.cpp:425] pool1 <- conv1
I0711 10:26:40.784217  2597 net.cpp:399] pool1 -> pool1
I0711 10:26:40.784255  2597 net.cpp:141] Setting up pool1
I0711 10:26:40.784260  2597 net.cpp:148] Top shape: 50 96 27 27 (3499200)
I0711 10:26:40.784262  2597 net.cpp:156] Memory required for data: 161074400
I0711 10:26:40.784265  2597 layer_factory.hpp:77] Creating layer norm1
I0711 10:26:40.784273  2597 net.cpp:91] Creating Layer norm1
I0711 10:26:40.784281  2597 net.cpp:425] norm1 <- pool1
I0711 10:26:40.784292  2597 net.cpp:399] norm1 -> norm1
I0711 10:26:40.784432  2597 net.cpp:141] Setting up norm1
I0711 10:26:40.784440  2597 net.cpp:148] Top shape: 50 96 27 27 (3499200)
I0711 10:26:40.784442  2597 net.cpp:156] Memory required for data: 175071200
I0711 10:26:40.784446  2597 layer_factory.hpp:77] Creating layer conv2
I0711 10:26:40.784453  2597 net.cpp:91] Creating Layer conv2
I0711 10:26:40.784456  2597 net.cpp:425] conv2 <- norm1
I0711 10:26:40.784461  2597 net.cpp:399] conv2 -> conv2
I0711 10:26:40.788395  2597 net.cpp:141] Setting up conv2
I0711 10:26:40.788408  2597 net.cpp:148] Top shape: 50 256 27 27 (9331200)
I0711 10:26:40.788410  2597 net.cpp:156] Memory required for data: 212396000
I0711 10:26:40.788419  2597 layer_factory.hpp:77] Creating layer relu2
I0711 10:26:40.788424  2597 net.cpp:91] Creating Layer relu2
I0711 10:26:40.788427  2597 net.cpp:425] relu2 <- conv2
I0711 10:26:40.788431  2597 net.cpp:386] relu2 -> conv2 (in-place)
I0711 10:26:40.788564  2597 net.cpp:141] Setting up relu2
I0711 10:26:40.788571  2597 net.cpp:148] Top shape: 50 256 27 27 (9331200)
I0711 10:26:40.788574  2597 net.cpp:156] Memory required for data: 249720800
I0711 10:26:40.788576  2597 layer_factory.hpp:77] Creating layer pool2
I0711 10:26:40.788583  2597 net.cpp:91] Creating Layer pool2
I0711 10:26:40.788584  2597 net.cpp:425] pool2 <- conv2
I0711 10:26:40.788589  2597 net.cpp:399] pool2 -> pool2
I0711 10:26:40.788619  2597 net.cpp:141] Setting up pool2
I0711 10:26:40.788625  2597 net.cpp:148] Top shape: 50 256 13 13 (2163200)
I0711 10:26:40.788626  2597 net.cpp:156] Memory required for data: 258373600
I0711 10:26:40.788628  2597 layer_factory.hpp:77] Creating layer norm2
I0711 10:26:40.788635  2597 net.cpp:91] Creating Layer norm2
I0711 10:26:40.788637  2597 net.cpp:425] norm2 <- pool2
I0711 10:26:40.788641  2597 net.cpp:399] norm2 -> norm2
I0711 10:26:40.788869  2597 net.cpp:141] Setting up norm2
I0711 10:26:40.788878  2597 net.cpp:148] Top shape: 50 256 13 13 (2163200)
I0711 10:26:40.788880  2597 net.cpp:156] Memory required for data: 267026400
I0711 10:26:40.788883  2597 layer_factory.hpp:77] Creating layer conv3
I0711 10:26:40.788892  2597 net.cpp:91] Creating Layer conv3
I0711 10:26:40.788894  2597 net.cpp:425] conv3 <- norm2
I0711 10:26:40.788899  2597 net.cpp:399] conv3 -> conv3
I0711 10:26:40.796556  2597 net.cpp:141] Setting up conv3
I0711 10:26:40.796574  2597 net.cpp:148] Top shape: 50 384 13 13 (3244800)
I0711 10:26:40.796577  2597 net.cpp:156] Memory required for data: 280005600
I0711 10:26:40.796587  2597 layer_factory.hpp:77] Creating layer relu3
I0711 10:26:40.796594  2597 net.cpp:91] Creating Layer relu3
I0711 10:26:40.796599  2597 net.cpp:425] relu3 <- conv3
I0711 10:26:40.796603  2597 net.cpp:386] relu3 -> conv3 (in-place)
I0711 10:26:40.796732  2597 net.cpp:141] Setting up relu3
I0711 10:26:40.796739  2597 net.cpp:148] Top shape: 50 384 13 13 (3244800)
I0711 10:26:40.796741  2597 net.cpp:156] Memory required for data: 292984800
I0711 10:26:40.796744  2597 layer_factory.hpp:77] Creating layer conv4
I0711 10:26:40.796753  2597 net.cpp:91] Creating Layer conv4
I0711 10:26:40.796756  2597 net.cpp:425] conv4 <- conv3
I0711 10:26:40.796761  2597 net.cpp:399] conv4 -> conv4
I0711 10:26:40.803228  2597 net.cpp:141] Setting up conv4
I0711 10:26:40.803243  2597 net.cpp:148] Top shape: 50 384 13 13 (3244800)
I0711 10:26:40.803246  2597 net.cpp:156] Memory required for data: 305964000
I0711 10:26:40.803252  2597 layer_factory.hpp:77] Creating layer relu4
I0711 10:26:40.803258  2597 net.cpp:91] Creating Layer relu4
I0711 10:26:40.803261  2597 net.cpp:425] relu4 <- conv4
I0711 10:26:40.803266  2597 net.cpp:386] relu4 -> conv4 (in-place)
I0711 10:26:40.803400  2597 net.cpp:141] Setting up relu4
I0711 10:26:40.803407  2597 net.cpp:148] Top shape: 50 384 13 13 (3244800)
I0711 10:26:40.803409  2597 net.cpp:156] Memory required for data: 318943200
I0711 10:26:40.803412  2597 layer_factory.hpp:77] Creating layer conv5
I0711 10:26:40.803424  2597 net.cpp:91] Creating Layer conv5
I0711 10:26:40.803434  2597 net.cpp:425] conv5 <- conv4
I0711 10:26:40.803441  2597 net.cpp:399] conv5 -> conv5
I0711 10:26:40.808320  2597 net.cpp:141] Setting up conv5
I0711 10:26:40.808331  2597 net.cpp:148] Top shape: 50 256 13 13 (2163200)
I0711 10:26:40.808334  2597 net.cpp:156] Memory required for data: 327596000
I0711 10:26:40.808342  2597 layer_factory.hpp:77] Creating layer relu5
I0711 10:26:40.808348  2597 net.cpp:91] Creating Layer relu5
I0711 10:26:40.808351  2597 net.cpp:425] relu5 <- conv5
I0711 10:26:40.808354  2597 net.cpp:386] relu5 -> conv5 (in-place)
I0711 10:26:40.808567  2597 net.cpp:141] Setting up relu5
I0711 10:26:40.808575  2597 net.cpp:148] Top shape: 50 256 13 13 (2163200)
I0711 10:26:40.808578  2597 net.cpp:156] Memory required for data: 336248800
I0711 10:26:40.808580  2597 layer_factory.hpp:77] Creating layer pool5
I0711 10:26:40.808585  2597 net.cpp:91] Creating Layer pool5
I0711 10:26:40.808588  2597 net.cpp:425] pool5 <- conv5
I0711 10:26:40.808593  2597 net.cpp:399] pool5 -> pool5
I0711 10:26:40.808629  2597 net.cpp:141] Setting up pool5
I0711 10:26:40.808634  2597 net.cpp:148] Top shape: 50 256 6 6 (460800)
I0711 10:26:40.808635  2597 net.cpp:156] Memory required for data: 338092000
I0711 10:26:40.808639  2597 layer_factory.hpp:77] Creating layer fc6
I0711 10:26:40.808646  2597 net.cpp:91] Creating Layer fc6
I0711 10:26:40.808648  2597 net.cpp:425] fc6 <- pool5
I0711 10:26:40.808652  2597 net.cpp:399] fc6 -> fc6
I0711 10:26:41.098570  2597 net.cpp:141] Setting up fc6
I0711 10:26:41.098592  2597 net.cpp:148] Top shape: 50 4096 (204800)
I0711 10:26:41.098594  2597 net.cpp:156] Memory required for data: 338911200
I0711 10:26:41.098603  2597 layer_factory.hpp:77] Creating layer relu6
I0711 10:26:41.098610  2597 net.cpp:91] Creating Layer relu6
I0711 10:26:41.098613  2597 net.cpp:425] relu6 <- fc6
I0711 10:26:41.098619  2597 net.cpp:386] relu6 -> fc6 (in-place)
I0711 10:26:41.098794  2597 net.cpp:141] Setting up relu6
I0711 10:26:41.098801  2597 net.cpp:148] Top shape: 50 4096 (204800)
I0711 10:26:41.098803  2597 net.cpp:156] Memory required for data: 339730400
I0711 10:26:41.098805  2597 layer_factory.hpp:77] Creating layer drop6
I0711 10:26:41.098811  2597 net.cpp:91] Creating Layer drop6
I0711 10:26:41.098814  2597 net.cpp:425] drop6 <- fc6
I0711 10:26:41.098819  2597 net.cpp:386] drop6 -> fc6 (in-place)
I0711 10:26:41.098845  2597 net.cpp:141] Setting up drop6
I0711 10:26:41.098850  2597 net.cpp:148] Top shape: 50 4096 (204800)
I0711 10:26:41.098851  2597 net.cpp:156] Memory required for data: 340549600
I0711 10:26:41.098853  2597 layer_factory.hpp:77] Creating layer fc7
I0711 10:26:41.098860  2597 net.cpp:91] Creating Layer fc7
I0711 10:26:41.098861  2597 net.cpp:425] fc7 <- fc6
I0711 10:26:41.098865  2597 net.cpp:399] fc7 -> fc7
I0711 10:26:41.227144  2597 net.cpp:141] Setting up fc7
I0711 10:26:41.227164  2597 net.cpp:148] Top shape: 50 4096 (204800)
I0711 10:26:41.227165  2597 net.cpp:156] Memory required for data: 341368800
I0711 10:26:41.227174  2597 layer_factory.hpp:77] Creating layer relu7
I0711 10:26:41.227181  2597 net.cpp:91] Creating Layer relu7
I0711 10:26:41.227185  2597 net.cpp:425] relu7 <- fc7
I0711 10:26:41.227190  2597 net.cpp:386] relu7 -> fc7 (in-place)
I0711 10:26:41.227519  2597 net.cpp:141] Setting up relu7
I0711 10:26:41.227529  2597 net.cpp:148] Top shape: 50 4096 (204800)
I0711 10:26:41.227530  2597 net.cpp:156] Memory required for data: 342188000
I0711 10:26:41.227533  2597 layer_factory.hpp:77] Creating layer drop7
I0711 10:26:41.227540  2597 net.cpp:91] Creating Layer drop7
I0711 10:26:41.227541  2597 net.cpp:425] drop7 <- fc7
I0711 10:26:41.227547  2597 net.cpp:386] drop7 -> fc7 (in-place)
I0711 10:26:41.227571  2597 net.cpp:141] Setting up drop7
I0711 10:26:41.227576  2597 net.cpp:148] Top shape: 50 4096 (204800)
I0711 10:26:41.227578  2597 net.cpp:156] Memory required for data: 343007200
I0711 10:26:41.227581  2597 layer_factory.hpp:77] Creating layer fc8_emotion6
I0711 10:26:41.227587  2597 net.cpp:91] Creating Layer fc8_emotion6
I0711 10:26:41.227593  2597 net.cpp:425] fc8_emotion6 <- fc7
I0711 10:26:41.227607  2597 net.cpp:399] fc8_emotion6 -> fc8_emotion6
I0711 10:26:41.228076  2597 net.cpp:141] Setting up fc8_emotion6
I0711 10:26:41.228085  2597 net.cpp:148] Top shape: 50 2 (100)
I0711 10:26:41.228087  2597 net.cpp:156] Memory required for data: 343007600
I0711 10:26:41.228091  2597 layer_factory.hpp:77] Creating layer loss
I0711 10:26:41.228096  2597 net.cpp:91] Creating Layer loss
I0711 10:26:41.228098  2597 net.cpp:425] loss <- fc8_emotion6
I0711 10:26:41.228101  2597 net.cpp:425] loss <- label
I0711 10:26:41.228108  2597 net.cpp:399] loss -> loss
I0711 10:26:41.228118  2597 layer_factory.hpp:77] Creating layer loss
…
I0711 10:26:41.228642  2597 net.cpp:313] The NetState phase (1) differed from the phase (0) specified by a rule in layer data
I0711 10:26:41.228760  2597 net.cpp:49] Initializing net from parameters: 
name: "Places205ForEmotion6"
state {
  phase: TEST
}
layer {
  name: "data"
  type: "ImageData"
  top: "data"
  top: "label"
  include {
    phase: TEST
  }
  transform_param {
    mirror: false
    crop_size: 227
    mean_file: "places205.imagenet_mean.binaryproto"
  }
  image_data_param {
    source: "em6_posneg_test.txt"
    batch_size: 50
    new_height: 256
    new_width: 256
  }
}
layer {
  name: "conv1"
  type: "Convolution"
  bottom: "data"
  top: "conv1"
  param {
    lr_mult: 1
    decay_mult: 1
  }
  param {
    lr_mult: 2
    decay_mult: 0
  }
  convolution_param {
    num_output: 96
    kernel_size: 11
    stride: 4
    weight_filler {
      type: "gaussian"
      std: 0.01
    }
    bias_filler {
      type: "constant"
      value: 0
    }
  }
}
layer {
  name: "relu1"
  type: "ReLU"
  bottom: "conv1"
  top: "conv1"
}
layer {
  name: "pool1"
  type: "Pooling"
  bottom: "conv1"
  top: "pool1"
  pooling_param {
    pool: MAX
    kernel_size: 3
    stride: 2
  }
}
layer {
  name: "norm1"
  type: "LRN"
  bottom: "pool1"
  top: "norm1"
  lrn_param {
    local_size: 5
    alpha: 0.0001
    beta: 0.75
  }
}
layer {
  name: "conv2"
  type: "Convolution"
  bottom: "norm1"
  top: "conv2"
  param {
    lr_mult: 1
    decay_mult: 1
  }
  param {
    lr_mult: 2
    decay_mult: 0
  }
  convolution_param {
    num_output: 256
    pad: 2
    kernel_size: 5
    group: 2
    weight_filler {
      type: "gaussian"
      std: 0.01
    }
    bias_filler {
      type: "constant"
      value: 1
    }
  }
}
layer {
  name: "relu2"
  type: "ReLU"
  bottom: "conv2"
  top: "conv2"
}
layer {
  name: "pool2"
  type: "Pooling"
  bottom: "conv2"
  top: "pool2"
  pooling_param {
    pool: MAX
    kernel_size: 3
    stride: 2
  }
}
layer {
  name: "norm2"
  type: "LRN"
  bottom: "pool2"
  top: "norm2"
  lrn_param {
    local_size: 5
    alpha: 0.0001
    beta: 0.75
  }
}
layer {
  name: "conv3"
  type: "Convolution"
  bottom: "norm2"
  top: "conv3"
  param {
    lr_mult: 1
    decay_mult: 1
  }
  param {
    lr_mult: 2
    decay_mult: 0
  }
  convolution_param {
    num_output: 384
    pad: 1
    kernel_size: 3
    weight_filler {
      type: "gaussian"
      std: 0.01
    }
    bias_filler {
      type: "constant"
      value: 0
    }
  }
}
layer {
  name: "relu3"
  type: "ReLU"
  bottom: "conv3"
  top: "conv3"
}
layer {
  name: "conv4"
  type: "Convolution"
  bottom: "conv3"
  top: "conv4"
  param {
    lr_mult: 1
    decay_mult: 1
  }
  param {
    lr_mult: 2
    decay_mult: 0
  }
  convolution_param {
    num_output: 384
    pad: 1
    kernel_size: 3
    group: 2
    weight_filler {
      type: "gaussian"
      std: 0.01
    }
    bias_filler {
      type: "constant"
      value: 1
    }
  }
}
layer {
  name: "relu4"
  type: "ReLU"
  bottom: "conv4"
  top: "conv4"
}
layer {
  name: "conv5"
  type: "Convolution"
  bottom: "conv4"
  top: "conv5"
  param {
    lr_mult: 1
    decay_mult: 1
  }
  param {
    lr_mult: 2
    decay_mult: 0
  }
  convolution_param {
    num_output: 256
    pad: 1
    kernel_size: 3
    group: 2
    weight_filler {
      type: "gaussian"
      std: 0.01
    }
    bias_filler {
      type: "constant"
      value: 1
    }
  }
}
layer {
  name: "relu5"
  type: "ReLU"
  bottom: "conv5"
  top: "conv5"
}
layer {
  name: "pool5"
  type: "Pooling"
  bottom: "conv5"
  top: "pool5"
  pooling_param {
    pool: MAX
    kernel_size: 3
    stride: 2
  }
}
layer {
  name: "fc6"
  type: "InnerProduct"
  bottom: "pool5"
  top: "fc6"
  param {
    lr_mult: 1
    decay_mult: 1
  }
  param {
    lr_mult: 2
    decay_mult: 0
  }
  inner_product_param {
    num_output: 4096
    weight_filler {
      type: "gaussian"
      std: 0.005
    }
    bias_filler {
      type: "constant"
      value: 1
    }
  }
}
layer {
  name: "relu6"
  type: "ReLU"
  bottom: "fc6"
  top: "fc6"
}
layer {
  name: "drop6"
  type: "Dropout"
  bottom: "fc6"
  top: "fc6"
  dropout_param {
    dropout_ratio: 0.5
  }
}
layer {
  name: "fc7"
  type: "InnerProduct"
  bottom: "fc6"
  top: "fc7"
  param {
    lr_mult: 1
    decay_mult: 1
  }
  param {
    lr_mult: 2
    decay_mult: 0
  }
  inner_product_param {
    num_output: 4096
    weight_filler {
      type: "gaussian"
      std: 0.005
    }
    bias_filler {
      type: "constant"
      value: 1
    }
  }
}
layer {
  name: "relu7"
  type: "ReLU"
  bottom: "fc7"
  top: "fc7"
}
layer {
  name: "drop7"
  type: "Dropout"
  bottom: "fc7"
  top: "fc7"
  dropout_param {
    dropout_ratio: 0.5
  }
}
layer {
  name: "fc8_emotion6"
  type: "InnerProduct"
  bottom: "fc7"
  top: "fc8_emotion6"
  param {
    lr_mult: 1
    decay_mult: 1
  }
  param {
    lr_mult: 2
    decay_mult: 0
  }
  inner_product_param {
    num_output: 2
    weight_filler {
      type: "gaussian"
      std: 0.01
    }
    bias_filler {
      type: "constant"
      value: 0
    }
  }
}
layer {
  name: "accuracy"
  type: "Accuracy"
  bottom: "fc8_emotion6"
  bottom: "label"
  top: "accuracy"
  include {
    phase: TEST
  }
}
layer {
  name: "loss"
  type: "SoftmaxWithLoss"
  bottom: "fc8_emotion6"
  bottom: "label"
  top: "loss"
}
I0711 10:26:41.228842  2597 layer_factory.hpp:77] Creating layer data
I0711 10:26:41.228852  2597 net.cpp:91] Creating Layer data
I0711 10:26:41.228858  2597 net.cpp:399] data -> data
I0711 10:26:41.228864  2597 net.cpp:399] data -> label
I0711 10:26:41.228870  2597 data_transformer.cpp:25] Loading mean file from: places205.imagenet_mean.binaryproto
I0711 10:26:41.230254  2597 image_data_layer.cpp:38] Opening file em6_posneg_test.txt
I0711 10:26:41.230371  2597 image_data_layer.cpp:58] A total of 397 images.
I0711 10:26:41.233307  2597 image_data_layer.cpp:85] output data size: 50,3,227,227
I0711 10:26:41.288769  2597 net.cpp:141] Setting up data
I0711 10:26:41.288790  2597 net.cpp:148] Top shape: 50 3 227 227 (7729350)
I0711 10:26:41.288794  2597 net.cpp:148] Top shape: 50 (50)
I0711 10:26:41.288796  2597 net.cpp:156] Memory required for data: 30917600
I0711 10:26:41.288802  2597 layer_factory.hpp:77] Creating layer label_data_1_split
I0711 10:26:41.288813  2597 net.cpp:91] Creating Layer label_data_1_split
I0711 10:26:41.288816  2597 net.cpp:425] label_data_1_split <- label
I0711 10:26:41.288822  2597 net.cpp:399] label_data_1_split -> label_data_1_split_0
I0711 10:26:41.288830  2597 net.cpp:399] label_data_1_split -> label_data_1_split_1
I0711 10:26:41.288900  2597 net.cpp:141] Setting up label_data_1_split
I0711 10:26:41.288907  2597 net.cpp:148] Top shape: 50 (50)
I0711 10:26:41.288908  2597 net.cpp:148] Top shape: 50 (50)
I0711 10:26:41.288910  2597 net.cpp:156] Memory required for data: 30918000
I0711 10:26:41.288913  2597 layer_factory.hpp:77] Creating layer conv1
I0711 10:26:41.288923  2597 net.cpp:91] Creating Layer conv1
I0711 10:26:41.288925  2597 net.cpp:425] conv1 <- data
I0711 10:26:41.288930  2597 net.cpp:399] conv1 -> conv1
I0711 10:26:41.289999  2597 net.cpp:141] Setting up conv1
I0711 10:26:41.290009  2597 net.cpp:148] Top shape: 50 96 55 55 (14520000)
I0711 10:26:41.290012  2597 net.cpp:156] Memory required for data: 88998000
I0711 10:26:41.290019  2597 layer_factory.hpp:77] Creating layer relu1
I0711 10:26:41.290025  2597 net.cpp:91] Creating Layer relu1
I0711 10:26:41.290027  2597 net.cpp:425] relu1 <- conv1
I0711 10:26:41.290030  2597 net.cpp:386] relu1 -> conv1 (in-place)
I0711 10:26:41.290237  2597 net.cpp:141] Setting up relu1
I0711 10:26:41.290246  2597 net.cpp:148] Top shape: 50 96 55 55 (14520000)
I0711 10:26:41.290249  2597 net.cpp:156] Memory required for data: 147078000
I0711 10:26:41.290251  2597 layer_factory.hpp:77] Creating layer pool1
I0711 10:26:41.290258  2597 net.cpp:91] Creating Layer pool1
I0711 10:26:41.290261  2597 net.cpp:425] pool1 <- conv1
I0711 10:26:41.290264  2597 net.cpp:399] pool1 -> pool1
I0711 10:26:41.290299  2597 net.cpp:141] Setting up pool1
I0711 10:26:41.290304  2597 net.cpp:148] Top shape: 50 96 27 27 (3499200)
I0711 10:26:41.290307  2597 net.cpp:156] Memory required for data: 161074800
I0711 10:26:41.290308  2597 layer_factory.hpp:77] Creating layer norm1
I0711 10:26:41.290313  2597 net.cpp:91] Creating Layer norm1
I0711 10:26:41.290315  2597 net.cpp:425] norm1 <- pool1
I0711 10:26:41.290318  2597 net.cpp:399] norm1 -> norm1
I0711 10:26:41.290457  2597 net.cpp:141] Setting up norm1
I0711 10:26:41.290463  2597 net.cpp:148] Top shape: 50 96 27 27 (3499200)
I0711 10:26:41.290465  2597 net.cpp:156] Memory required for data: 175071600
I0711 10:26:41.290468  2597 layer_factory.hpp:77] Creating layer conv2
I0711 10:26:41.290474  2597 net.cpp:91] Creating Layer conv2
I0711 10:26:41.290477  2597 net.cpp:425] conv2 <- norm1
I0711 10:26:41.290482  2597 net.cpp:399] conv2 -> conv2
I0711 10:26:41.303460  2597 net.cpp:141] Setting up conv2
I0711 10:26:41.303473  2597 net.cpp:148] Top shape: 50 256 27 27 (9331200)
I0711 10:26:41.303475  2597 net.cpp:156] Memory required for data: 212396400
I0711 10:26:41.303483  2597 layer_factory.hpp:77] Creating layer relu2
I0711 10:26:41.303488  2597 net.cpp:91] Creating Layer relu2
I0711 10:26:41.303495  2597 net.cpp:425] relu2 <- conv2
I0711 10:26:41.303508  2597 net.cpp:386] relu2 -> conv2 (in-place)
I0711 10:26:41.303633  2597 net.cpp:141] Setting up relu2
I0711 10:26:41.303639  2597 net.cpp:148] Top shape: 50 256 27 27 (9331200)
I0711 10:26:41.303642  2597 net.cpp:156] Memory required for data: 249721200
I0711 10:26:41.303644  2597 layer_factory.hpp:77] Creating layer pool2
I0711 10:26:41.303649  2597 net.cpp:91] Creating Layer pool2
I0711 10:26:41.303653  2597 net.cpp:425] pool2 <- conv2
I0711 10:26:41.303656  2597 net.cpp:399] pool2 -> pool2
I0711 10:26:41.303690  2597 net.cpp:141] Setting up pool2
I0711 10:26:41.303695  2597 net.cpp:148] Top shape: 50 256 13 13 (2163200)
I0711 10:26:41.303697  2597 net.cpp:156] Memory required for data: 258374000
I0711 10:26:41.303699  2597 layer_factory.hpp:77] Creating layer norm2
I0711 10:26:41.303704  2597 net.cpp:91] Creating Layer norm2
I0711 10:26:41.303706  2597 net.cpp:425] norm2 <- pool2
I0711 10:26:41.303709  2597 net.cpp:399] norm2 -> norm2
I0711 10:26:41.303943  2597 net.cpp:141] Setting up norm2
I0711 10:26:41.303952  2597 net.cpp:148] Top shape: 50 256 13 13 (2163200)
I0711 10:26:41.303954  2597 net.cpp:156] Memory required for data: 267026800
I0711 10:26:41.303957  2597 layer_factory.hpp:77] Creating layer conv3
I0711 10:26:41.303964  2597 net.cpp:91] Creating Layer conv3
I0711 10:26:41.303967  2597 net.cpp:425] conv3 <- norm2
I0711 10:26:41.303972  2597 net.cpp:399] conv3 -> conv3
I0711 10:26:41.311609  2597 net.cpp:141] Setting up conv3
I0711 10:26:41.311625  2597 net.cpp:148] Top shape: 50 384 13 13 (3244800)
I0711 10:26:41.311627  2597 net.cpp:156] Memory required for data: 280006000
I0711 10:26:41.311635  2597 layer_factory.hpp:77] Creating layer relu3
I0711 10:26:41.311642  2597 net.cpp:91] Creating Layer relu3
I0711 10:26:41.311645  2597 net.cpp:425] relu3 <- conv3
I0711 10:26:41.311650  2597 net.cpp:386] relu3 -> conv3 (in-place)
I0711 10:26:41.311779  2597 net.cpp:141] Setting up relu3
I0711 10:26:41.311785  2597 net.cpp:148] Top shape: 50 384 13 13 (3244800)
I0711 10:26:41.311787  2597 net.cpp:156] Memory required for data: 292985200
I0711 10:26:41.311790  2597 layer_factory.hpp:77] Creating layer conv4
I0711 10:26:41.311797  2597 net.cpp:91] Creating Layer conv4
I0711 10:26:41.311800  2597 net.cpp:425] conv4 <- conv3
I0711 10:26:41.311805  2597 net.cpp:399] conv4 -> conv4
I0711 10:26:41.318191  2597 net.cpp:141] Setting up conv4
I0711 10:26:41.318202  2597 net.cpp:148] Top shape: 50 384 13 13 (3244800)
I0711 10:26:41.318205  2597 net.cpp:156] Memory required for data: 305964400
I0711 10:26:41.318210  2597 layer_factory.hpp:77] Creating layer relu4
I0711 10:26:41.318215  2597 net.cpp:91] Creating Layer relu4
I0711 10:26:41.318218  2597 net.cpp:425] relu4 <- conv4
I0711 10:26:41.318222  2597 net.cpp:386] relu4 -> conv4 (in-place)
I0711 10:26:41.318439  2597 net.cpp:141] Setting up relu4
I0711 10:26:41.318447  2597 net.cpp:148] Top shape: 50 384 13 13 (3244800)
I0711 10:26:41.318449  2597 net.cpp:156] Memory required for data: 318943600
I0711 10:26:41.318452  2597 layer_factory.hpp:77] Creating layer conv5
I0711 10:26:41.318459  2597 net.cpp:91] Creating Layer conv5
I0711 10:26:41.318461  2597 net.cpp:425] conv5 <- conv4
I0711 10:26:41.318466  2597 net.cpp:399] conv5 -> conv5
I0711 10:26:41.323184  2597 net.cpp:141] Setting up conv5
I0711 10:26:41.323197  2597 net.cpp:148] Top shape: 50 256 13 13 (2163200)
I0711 10:26:41.323199  2597 net.cpp:156] Memory required for data: 327596400
I0711 10:26:41.323209  2597 layer_factory.hpp:77] Creating layer relu5
I0711 10:26:41.323215  2597 net.cpp:91] Creating Layer relu5
I0711 10:26:41.323217  2597 net.cpp:425] relu5 <- conv5
I0711 10:26:41.323221  2597 net.cpp:386] relu5 -> conv5 (in-place)
I0711 10:26:41.323346  2597 net.cpp:141] Setting up relu5
I0711 10:26:41.323353  2597 net.cpp:148] Top shape: 50 256 13 13 (2163200)
I0711 10:26:41.323354  2597 net.cpp:156] Memory required for data: 336249200
I0711 10:26:41.323357  2597 layer_factory.hpp:77] Creating layer pool5
I0711 10:26:41.323364  2597 net.cpp:91] Creating Layer pool5
I0711 10:26:41.323370  2597 net.cpp:425] pool5 <- conv5
I0711 10:26:41.323382  2597 net.cpp:399] pool5 -> pool5
I0711 10:26:41.323421  2597 net.cpp:141] Setting up pool5
I0711 10:26:41.323426  2597 net.cpp:148] Top shape: 50 256 6 6 (460800)
I0711 10:26:41.323427  2597 net.cpp:156] Memory required for data: 338092400
I0711 10:26:41.323429  2597 layer_factory.hpp:77] Creating layer fc6
I0711 10:26:41.323436  2597 net.cpp:91] Creating Layer fc6
I0711 10:26:41.323437  2597 net.cpp:425] fc6 <- pool5
I0711 10:26:41.323441  2597 net.cpp:399] fc6 -> fc6
I0711 10:26:41.612007  2597 net.cpp:141] Setting up fc6
I0711 10:26:41.612027  2597 net.cpp:148] Top shape: 50 4096 (204800)
I0711 10:26:41.612030  2597 net.cpp:156] Memory required for data: 338911600
I0711 10:26:41.612036  2597 layer_factory.hpp:77] Creating layer relu6
I0711 10:26:41.612045  2597 net.cpp:91] Creating Layer relu6
I0711 10:26:41.612048  2597 net.cpp:425] relu6 <- fc6
I0711 10:26:41.612053  2597 net.cpp:386] relu6 -> fc6 (in-place)
I0711 10:26:41.615042  2597 net.cpp:141] Setting up relu6
I0711 10:26:41.615061  2597 net.cpp:148] Top shape: 50 4096 (204800)
I0711 10:26:41.615063  2597 net.cpp:156] Memory required for data: 339730800
I0711 10:26:41.615067  2597 layer_factory.hpp:77] Creating layer drop6
I0711 10:26:41.615074  2597 net.cpp:91] Creating Layer drop6
I0711 10:26:41.615077  2597 net.cpp:425] drop6 <- fc6
I0711 10:26:41.615082  2597 net.cpp:386] drop6 -> fc6 (in-place)
I0711 10:26:41.615118  2597 net.cpp:141] Setting up drop6
I0711 10:26:41.615123  2597 net.cpp:148] Top shape: 50 4096 (204800)
I0711 10:26:41.615124  2597 net.cpp:156] Memory required for data: 340550000
I0711 10:26:41.615128  2597 layer_factory.hpp:77] Creating layer fc7
I0711 10:26:41.615134  2597 net.cpp:91] Creating Layer fc7
I0711 10:26:41.615136  2597 net.cpp:425] fc7 <- fc6
I0711 10:26:41.615140  2597 net.cpp:399] fc7 -> fc7
I0711 10:26:41.759697  2597 net.cpp:141] Setting up fc7
I0711 10:26:41.759718  2597 net.cpp:148] Top shape: 50 4096 (204800)
I0711 10:26:41.759721  2597 net.cpp:156] Memory required for data: 341369200
I0711 10:26:41.759728  2597 layer_factory.hpp:77] Creating layer relu7
I0711 10:26:41.759737  2597 net.cpp:91] Creating Layer relu7
I0711 10:26:41.759740  2597 net.cpp:425] relu7 <- fc7
I0711 10:26:41.759745  2597 net.cpp:386] relu7 -> fc7 (in-place)
I0711 10:26:41.759927  2597 net.cpp:141] Setting up relu7
I0711 10:26:41.759934  2597 net.cpp:148] Top shape: 50 4096 (204800)
I0711 10:26:41.759938  2597 net.cpp:156] Memory required for data: 342188400
I0711 10:26:41.759939  2597 layer_factory.hpp:77] Creating layer drop7
I0711 10:26:41.759945  2597 net.cpp:91] Creating Layer drop7
I0711 10:26:41.759948  2597 net.cpp:425] drop7 <- fc7
I0711 10:26:41.759951  2597 net.cpp:386] drop7 -> fc7 (in-place)
I0711 10:26:41.759977  2597 net.cpp:141] Setting up drop7
I0711 10:26:41.759982  2597 net.cpp:148] Top shape: 50 4096 (204800)
I0711 10:26:41.759984  2597 net.cpp:156] Memory required for data: 343007600
I0711 10:26:41.759986  2597 layer_factory.hpp:77] Creating layer fc8_emotion6
I0711 10:26:41.759991  2597 net.cpp:91] Creating Layer fc8_emotion6
I0711 10:26:41.759994  2597 net.cpp:425] fc8_emotion6 <- fc7
I0711 10:26:41.759999  2597 net.cpp:399] fc8_emotion6 -> fc8_emotion6
I0711 10:26:41.760143  2597 net.cpp:141] Setting up fc8_emotion6
I0711 10:26:41.760149  2597 net.cpp:148] Top shape: 50 2 (100)
I0711 10:26:41.760151  2597 net.cpp:156] Memory required for data: 343008000
I0711 10:26:41.760155  2597 layer_factory.hpp:77] Creating layer fc8_emotion6_fc8_emotion6_0_split
I0711 10:26:41.760160  2597 net.cpp:91] Creating Layer fc8_emotion6_fc8_emotion6_0_split
I0711 10:26:41.760164  2597 net.cpp:425] fc8_emotion6_fc8_emotion6_0_split <- fc8_emotion6
I0711 10:26:41.760166  2597 net.cpp:399] fc8_emotion6_fc8_emotion6_0_split -> fc8_emotion6_fc8_emotion6_0_split_0
I0711 10:26:41.760171  2597 net.cpp:399] fc8_emotion6_fc8_emotion6_0_split -> fc8_emotion6_fc8_emotion6_0_split_1
I0711 10:26:41.760200  2597 net.cpp:141] Setting up fc8_emotion6_fc8_emotion6_0_split
I0711 10:26:41.760213  2597 net.cpp:148] Top shape: 50 2 (100)
I0711 10:26:41.760226  2597 net.cpp:148] Top shape: 50 2 (100)
I0711 10:26:41.760228  2597 net.cpp:156] Memory required for data: 343008800
I0711 10:26:41.760231  2597 layer_factory.hpp:77] Creating layer accuracy
I0711 10:26:41.760236  2597 net.cpp:91] Creating Layer accuracy
I0711 10:26:41.760238  2597 net.cpp:425] accuracy <- fc8_emotion6_fc8_emotion6_0_split_0
I0711 10:26:41.760242  2597 net.cpp:425] accuracy <- label_data_1_split_0
I0711 10:26:41.760246  2597 net.cpp:399] accuracy -> accuracy
…
