…
I0621 11:04:26.488939 28942 net.cpp:313] The NetState phase (0) differed from the phase (1) specified by a rule in layer accuracy
I0621 11:04:26.489068 28942 net.cpp:49] Initializing net from parameters: 
name: "Places205ForEmotion6"
state {
  phase: TRAIN
}
layer {
  name: "data"
  type: "ImageData"
  top: "data"
  top: "label"
  include {
    phase: TRAIN
  }
  transform_param {
    mirror: true
    crop_size: 227
    mean_file: "places205.imagenet_mean.binaryproto"
  }
  image_data_param {
    source: "em6_posneg_train.txt"
    batch_size: 50
    new_height: 256
    new_width: 256
  }
}
layer {
  name: "conv1"
  type: "Convolution"
  bottom: "data"
  top: "conv1"
  param {
    lr_mult: 1
    decay_mult: 1
  }
  param {
    lr_mult: 2
    decay_mult: 0
  }
  convolution_param {
    num_output: 96
    kernel_size: 11
    stride: 4
    weight_filler {
      type: "gaussian"
      std: 0.01
    }
    bias_filler {
      type: "constant"
      value: 0
    }
  }
}
layer {
  name: "relu1"
  type: "ReLU"
  bottom: "conv1"
  top: "conv1"
}
layer {
  name: "pool1"
  type: "Pooling"
  bottom: "conv1"
  top: "pool1"
  pooling_param {
    pool: MAX
    kernel_size: 3
    stride: 2
  }
}
layer {
  name: "norm1"
  type: "LRN"
  bottom: "pool1"
  top: "norm1"
  lrn_param {
    local_size: 5
    alpha: 0.0001
    beta: 0.75
  }
}
layer {
  name: "conv2"
  type: "Convolution"
  bottom: "norm1"
  top: "conv2"
  param {
    lr_mult: 1
    decay_mult: 1
  }
  param {
    lr_mult: 2
    decay_mult: 0
  }
  convolution_param {
    num_output: 256
    pad: 2
    kernel_size: 5
    group: 2
    weight_filler {
      type: "gaussian"
      std: 0.01
    }
    bias_filler {
      type: "constant"
      value: 1
    }
  }
}
layer {
  name: "relu2"
  type: "ReLU"
  bottom: "conv2"
  top: "conv2"
}
layer {
  name: "pool2"
  type: "Pooling"
  bottom: "conv2"
  top: "pool2"
  pooling_param {
    pool: MAX
    kernel_size: 3
    stride: 2
  }
}
layer {
  name: "norm2"
  type: "LRN"
  bottom: "pool2"
  top: "norm2"
  lrn_param {
    local_size: 5
    alpha: 0.0001
    beta: 0.75
  }
}
layer {
  name: "conv3"
  type: "Convolution"
  bottom: "norm2"
  top: "conv3"
  param {
    lr_mult: 1
    decay_mult: 1
  }
  param {
    lr_mult: 2
    decay_mult: 0
  }
  convolution_param {
    num_output: 384
    pad: 1
    kernel_size: 3
    weight_filler {
      type: "gaussian"
      std: 0.01
    }
    bias_filler {
      type: "constant"
      value: 0
    }
  }
}
layer {
  name: "relu3"
  type: "ReLU"
  bottom: "conv3"
  top: "conv3"
}
layer {
  name: "conv4"
  type: "Convolution"
  bottom: "conv3"
  top: "conv4"
  param {
    lr_mult: 1
    decay_mult: 1
  }
  param {
    lr_mult: 2
    decay_mult: 0
  }
  convolution_param {
    num_output: 384
    pad: 1
    kernel_size: 3
    group: 2
    weight_filler {
      type: "gaussian"
      std: 0.01
    }
    bias_filler {
      type: "constant"
      value: 1
    }
  }
}
layer {
  name: "relu4"
  type: "ReLU"
  bottom: "conv4"
  top: "conv4"
}
layer {
  name: "conv5"
  type: "Convolution"
  bottom: "conv4"
  top: "conv5"
  param {
    lr_mult: 1
    decay_mult: 1
  }
  param {
    lr_mult: 2
    decay_mult: 0
  }
  convolution_param {
    num_output: 256
    pad: 1
    kernel_size: 3
    group: 2
    weight_filler {
      type: "gaussian"
      std: 0.01
    }
    bias_filler {
      type: "constant"
      value: 1
    }
  }
}
layer {
  name: "relu5"
  type: "ReLU"
  bottom: "conv5"
  top: "conv5"
}
layer {
  name: "pool5"
  type: "Pooling"
  bottom: "conv5"
  top: "pool5"
  pooling_param {
    pool: MAX
    kernel_size: 3
    stride: 2
  }
}
layer {
  name: "fc6"
  type: "InnerProduct"
  bottom: "pool5"
  top: "fc6"
  param {
    lr_mult: 1
    decay_mult: 1
  }
  param {
    lr_mult: 2
    decay_mult: 0
  }
  inner_product_param {
    num_output: 4096
    weight_filler {
      type: "gaussian"
      std: 0.005
    }
    bias_filler {
      type: "constant"
      value: 1
    }
  }
}
layer {
  name: "relu6"
  type: "ReLU"
  bottom: "fc6"
  top: "fc6"
}
layer {
  name: "drop6"
  type: "Dropout"
  bottom: "fc6"
  top: "fc6"
  dropout_param {
    dropout_ratio: 0.5
  }
}
layer {
  name: "fc7"
  type: "InnerProduct"
  bottom: "fc6"
  top: "fc7"
  param {
    lr_mult: 1
    decay_mult: 1
  }
  param {
    lr_mult: 2
    decay_mult: 0
  }
  inner_product_param {
    num_output: 4096
    weight_filler {
      type: "gaussian"
      std: 0.005
    }
    bias_filler {
      type: "constant"
      value: 1
    }
  }
}
layer {
  name: "relu7"
  type: "ReLU"
  bottom: "fc7"
  top: "fc7"
}
layer {
  name: "drop7"
  type: "Dropout"
  bottom: "fc7"
  top: "fc7"
  dropout_param {
    dropout_ratio: 0.5
  }
}
layer {
  name: "fc8_emotion6"
  type: "InnerProduct"
  bottom: "fc7"
  top: "fc8_emotion6"
  param {
    lr_mult: 1
    decay_mult: 1
  }
  param {
    lr_mult: 2
    decay_mult: 0
  }
  inner_product_param {
    num_output: 2
    weight_filler {
      type: "gaussian"
      std: 0.01
    }
    bias_filler {
      type: "constant"
      value: 0
    }
  }
}
layer {
  name: "loss"
  type: "SoftmaxWithLoss"
  bottom: "fc8_emotion6"
  bottom: "label"
  top: "loss"
}
I0621 11:04:26.489157 28942 layer_factory.hpp:77] Creating layer data
I0621 11:04:26.489181 28942 net.cpp:91] Creating Layer data
I0621 11:04:26.489187 28942 net.cpp:399] data -> data
I0621 11:04:26.489207 28942 net.cpp:399] data -> label
I0621 11:04:26.489220 28942 data_transformer.cpp:25] Loading mean file from: places205.imagenet_mean.binaryproto
I0621 11:04:26.513192 28942 image_data_layer.cpp:38] Opening file em6_posneg_train.txt
I0621 11:04:26.513772 28942 image_data_layer.cpp:58] A total of 1583 images.
I0621 11:04:26.518417 28942 image_data_layer.cpp:85] output data size: 50,3,227,227
I0621 11:04:26.575410 28942 net.cpp:141] Setting up data
I0621 11:04:26.575443 28942 net.cpp:148] Top shape: 50 3 227 227 (7729350)
I0621 11:04:26.575449 28942 net.cpp:148] Top shape: 50 (50)
I0621 11:04:26.575454 28942 net.cpp:156] Memory required for data: 30917600
I0621 11:04:26.575462 28942 layer_factory.hpp:77] Creating layer conv1
I0621 11:04:26.575489 28942 net.cpp:91] Creating Layer conv1
I0621 11:04:26.575496 28942 net.cpp:425] conv1 <- data
I0621 11:04:26.575511 28942 net.cpp:399] conv1 -> conv1
I0621 11:04:29.332964 28942 net.cpp:141] Setting up conv1
I0621 11:04:29.332996 28942 net.cpp:148] Top shape: 50 96 55 55 (14520000)
I0621 11:04:29.332999 28942 net.cpp:156] Memory required for data: 88997600
I0621 11:04:29.333019 28942 layer_factory.hpp:77] Creating layer relu1
I0621 11:04:29.342643 28942 net.cpp:91] Creating Layer relu1
I0621 11:04:29.342649 28942 net.cpp:425] relu1 <- conv1
I0621 11:04:29.342654 28942 net.cpp:386] relu1 -> conv1 (in-place)
I0621 11:04:29.342875 28942 net.cpp:141] Setting up relu1
I0621 11:04:29.342883 28942 net.cpp:148] Top shape: 50 96 55 55 (14520000)
I0621 11:04:29.342886 28942 net.cpp:156] Memory required for data: 147077600
I0621 11:04:29.342890 28942 layer_factory.hpp:77] Creating layer pool1
I0621 11:04:29.342895 28942 net.cpp:91] Creating Layer pool1
I0621 11:04:29.342897 28942 net.cpp:425] pool1 <- conv1
I0621 11:04:29.342901 28942 net.cpp:399] pool1 -> pool1
I0621 11:04:29.342943 28942 net.cpp:141] Setting up pool1
I0621 11:04:29.342949 28942 net.cpp:148] Top shape: 50 96 27 27 (3499200)
I0621 11:04:29.342952 28942 net.cpp:156] Memory required for data: 161074400
I0621 11:04:29.342958 28942 layer_factory.hpp:77] Creating layer norm1
I0621 11:04:29.342975 28942 net.cpp:91] Creating Layer norm1
I0621 11:04:29.342978 28942 net.cpp:425] norm1 <- pool1
I0621 11:04:29.342983 28942 net.cpp:399] norm1 -> norm1
I0621 11:04:29.343122 28942 net.cpp:141] Setting up norm1
I0621 11:04:29.343129 28942 net.cpp:148] Top shape: 50 96 27 27 (3499200)
I0621 11:04:29.343132 28942 net.cpp:156] Memory required for data: 175071200
I0621 11:04:29.343134 28942 layer_factory.hpp:77] Creating layer conv2
I0621 11:04:29.343143 28942 net.cpp:91] Creating Layer conv2
I0621 11:04:29.343147 28942 net.cpp:425] conv2 <- norm1
I0621 11:04:29.343150 28942 net.cpp:399] conv2 -> conv2
I0621 11:04:29.347059 28942 net.cpp:141] Setting up conv2
I0621 11:04:29.347071 28942 net.cpp:148] Top shape: 50 256 27 27 (9331200)
I0621 11:04:29.347074 28942 net.cpp:156] Memory required for data: 212396000
I0621 11:04:29.347082 28942 layer_factory.hpp:77] Creating layer relu2
I0621 11:04:29.347087 28942 net.cpp:91] Creating Layer relu2
I0621 11:04:29.347090 28942 net.cpp:425] relu2 <- conv2
I0621 11:04:29.347095 28942 net.cpp:386] relu2 -> conv2 (in-place)
I0621 11:04:29.347229 28942 net.cpp:141] Setting up relu2
I0621 11:04:29.347235 28942 net.cpp:148] Top shape: 50 256 27 27 (9331200)
I0621 11:04:29.347237 28942 net.cpp:156] Memory required for data: 249720800
I0621 11:04:29.347240 28942 layer_factory.hpp:77] Creating layer pool2
I0621 11:04:29.347244 28942 net.cpp:91] Creating Layer pool2
I0621 11:04:29.347247 28942 net.cpp:425] pool2 <- conv2
I0621 11:04:29.347252 28942 net.cpp:399] pool2 -> pool2
I0621 11:04:29.347283 28942 net.cpp:141] Setting up pool2
I0621 11:04:29.347288 28942 net.cpp:148] Top shape: 50 256 13 13 (2163200)
I0621 11:04:29.347291 28942 net.cpp:156] Memory required for data: 258373600
I0621 11:04:29.347293 28942 layer_factory.hpp:77] Creating layer norm2
I0621 11:04:29.347300 28942 net.cpp:91] Creating Layer norm2
I0621 11:04:29.347302 28942 net.cpp:425] norm2 <- pool2
I0621 11:04:29.347306 28942 net.cpp:399] norm2 -> norm2
I0621 11:04:29.347535 28942 net.cpp:141] Setting up norm2
I0621 11:04:29.347544 28942 net.cpp:148] Top shape: 50 256 13 13 (2163200)
I0621 11:04:29.347546 28942 net.cpp:156] Memory required for data: 267026400
I0621 11:04:29.347549 28942 layer_factory.hpp:77] Creating layer conv3
I0621 11:04:29.347558 28942 net.cpp:91] Creating Layer conv3
I0621 11:04:29.347561 28942 net.cpp:425] conv3 <- norm2
I0621 11:04:29.347566 28942 net.cpp:399] conv3 -> conv3
I0621 11:04:29.355159 28942 net.cpp:141] Setting up conv3
I0621 11:04:29.355172 28942 net.cpp:148] Top shape: 50 384 13 13 (3244800)
I0621 11:04:29.355175 28942 net.cpp:156] Memory required for data: 280005600
I0621 11:04:29.355182 28942 layer_factory.hpp:77] Creating layer relu3
I0621 11:04:29.355187 28942 net.cpp:91] Creating Layer relu3
I0621 11:04:29.355190 28942 net.cpp:425] relu3 <- conv3
I0621 11:04:29.355195 28942 net.cpp:386] relu3 -> conv3 (in-place)
I0621 11:04:29.355324 28942 net.cpp:141] Setting up relu3
I0621 11:04:29.355330 28942 net.cpp:148] Top shape: 50 384 13 13 (3244800)
I0621 11:04:29.355332 28942 net.cpp:156] Memory required for data: 292984800
I0621 11:04:29.355335 28942 layer_factory.hpp:77] Creating layer conv4
I0621 11:04:29.355342 28942 net.cpp:91] Creating Layer conv4
I0621 11:04:29.355345 28942 net.cpp:425] conv4 <- conv3
I0621 11:04:29.355350 28942 net.cpp:399] conv4 -> conv4
I0621 11:04:29.361785 28942 net.cpp:141] Setting up conv4
I0621 11:04:29.361796 28942 net.cpp:148] Top shape: 50 384 13 13 (3244800)
I0621 11:04:29.361799 28942 net.cpp:156] Memory required for data: 305964000
I0621 11:04:29.361804 28942 layer_factory.hpp:77] Creating layer relu4
I0621 11:04:29.361810 28942 net.cpp:91] Creating Layer relu4
I0621 11:04:29.361812 28942 net.cpp:425] relu4 <- conv4
I0621 11:04:29.361816 28942 net.cpp:386] relu4 -> conv4 (in-place)
I0621 11:04:29.361949 28942 net.cpp:141] Setting up relu4
I0621 11:04:29.361956 28942 net.cpp:148] Top shape: 50 384 13 13 (3244800)
I0621 11:04:29.361963 28942 net.cpp:156] Memory required for data: 318943200
I0621 11:04:29.361974 28942 layer_factory.hpp:77] Creating layer conv5
I0621 11:04:29.361982 28942 net.cpp:91] Creating Layer conv5
I0621 11:04:29.361985 28942 net.cpp:425] conv5 <- conv4
I0621 11:04:29.361990 28942 net.cpp:399] conv5 -> conv5
I0621 11:04:29.366878 28942 net.cpp:141] Setting up conv5
I0621 11:04:29.366890 28942 net.cpp:148] Top shape: 50 256 13 13 (2163200)
I0621 11:04:29.366894 28942 net.cpp:156] Memory required for data: 327596000
I0621 11:04:29.366900 28942 layer_factory.hpp:77] Creating layer relu5
I0621 11:04:29.366905 28942 net.cpp:91] Creating Layer relu5
I0621 11:04:29.366909 28942 net.cpp:425] relu5 <- conv5
I0621 11:04:29.366912 28942 net.cpp:386] relu5 -> conv5 (in-place)
I0621 11:04:29.367125 28942 net.cpp:141] Setting up relu5
I0621 11:04:29.367135 28942 net.cpp:148] Top shape: 50 256 13 13 (2163200)
I0621 11:04:29.367136 28942 net.cpp:156] Memory required for data: 336248800
I0621 11:04:29.367139 28942 layer_factory.hpp:77] Creating layer pool5
I0621 11:04:29.367144 28942 net.cpp:91] Creating Layer pool5
I0621 11:04:29.367146 28942 net.cpp:425] pool5 <- conv5
I0621 11:04:29.367151 28942 net.cpp:399] pool5 -> pool5
I0621 11:04:29.367185 28942 net.cpp:141] Setting up pool5
I0621 11:04:29.367192 28942 net.cpp:148] Top shape: 50 256 6 6 (460800)
I0621 11:04:29.367194 28942 net.cpp:156] Memory required for data: 338092000
I0621 11:04:29.367197 28942 layer_factory.hpp:77] Creating layer fc6
I0621 11:04:29.367205 28942 net.cpp:91] Creating Layer fc6
I0621 11:04:29.367208 28942 net.cpp:425] fc6 <- pool5
I0621 11:04:29.367211 28942 net.cpp:399] fc6 -> fc6
I0621 11:04:29.654909 28942 net.cpp:141] Setting up fc6
I0621 11:04:29.654937 28942 net.cpp:148] Top shape: 50 4096 (204800)
I0621 11:04:29.654939 28942 net.cpp:156] Memory required for data: 338911200
I0621 11:04:29.654948 28942 layer_factory.hpp:77] Creating layer relu6
I0621 11:04:29.654956 28942 net.cpp:91] Creating Layer relu6
I0621 11:04:29.654959 28942 net.cpp:425] relu6 <- fc6
I0621 11:04:29.654964 28942 net.cpp:386] relu6 -> fc6 (in-place)
I0621 11:04:29.655140 28942 net.cpp:141] Setting up relu6
I0621 11:04:29.655148 28942 net.cpp:148] Top shape: 50 4096 (204800)
I0621 11:04:29.655149 28942 net.cpp:156] Memory required for data: 339730400
I0621 11:04:29.655153 28942 layer_factory.hpp:77] Creating layer drop6
I0621 11:04:29.655158 28942 net.cpp:91] Creating Layer drop6
I0621 11:04:29.655160 28942 net.cpp:425] drop6 <- fc6
I0621 11:04:29.655165 28942 net.cpp:386] drop6 -> fc6 (in-place)
I0621 11:04:29.655194 28942 net.cpp:141] Setting up drop6
I0621 11:04:29.655197 28942 net.cpp:148] Top shape: 50 4096 (204800)
I0621 11:04:29.655200 28942 net.cpp:156] Memory required for data: 340549600
I0621 11:04:29.655202 28942 layer_factory.hpp:77] Creating layer fc7
I0621 11:04:29.655208 28942 net.cpp:91] Creating Layer fc7
I0621 11:04:29.655211 28942 net.cpp:425] fc7 <- fc6
I0621 11:04:29.655215 28942 net.cpp:399] fc7 -> fc7
I0621 11:04:29.782865 28942 net.cpp:141] Setting up fc7
I0621 11:04:29.782891 28942 net.cpp:148] Top shape: 50 4096 (204800)
I0621 11:04:29.782893 28942 net.cpp:156] Memory required for data: 341368800
I0621 11:04:29.782901 28942 layer_factory.hpp:77] Creating layer relu7
I0621 11:04:29.782909 28942 net.cpp:91] Creating Layer relu7
I0621 11:04:29.782912 28942 net.cpp:425] relu7 <- fc7
I0621 11:04:29.782917 28942 net.cpp:386] relu7 -> fc7 (in-place)
I0621 11:04:29.783231 28942 net.cpp:141] Setting up relu7
I0621 11:04:29.783239 28942 net.cpp:148] Top shape: 50 4096 (204800)
I0621 11:04:29.783241 28942 net.cpp:156] Memory required for data: 342188000
I0621 11:04:29.783244 28942 layer_factory.hpp:77] Creating layer drop7
I0621 11:04:29.783252 28942 net.cpp:91] Creating Layer drop7
I0621 11:04:29.783253 28942 net.cpp:425] drop7 <- fc7
I0621 11:04:29.783257 28942 net.cpp:386] drop7 -> fc7 (in-place)
I0621 11:04:29.783285 28942 net.cpp:141] Setting up drop7
I0621 11:04:29.783290 28942 net.cpp:148] Top shape: 50 4096 (204800)
I0621 11:04:29.783293 28942 net.cpp:156] Memory required for data: 343007200
I0621 11:04:29.783301 28942 layer_factory.hpp:77] Creating layer fc8_emotion6
I0621 11:04:29.783316 28942 net.cpp:91] Creating Layer fc8_emotion6
I0621 11:04:29.783319 28942 net.cpp:425] fc8_emotion6 <- fc7
I0621 11:04:29.783324 28942 net.cpp:399] fc8_emotion6 -> fc8_emotion6
I0621 11:04:29.783785 28942 net.cpp:141] Setting up fc8_emotion6
I0621 11:04:29.783794 28942 net.cpp:148] Top shape: 50 2 (100)
I0621 11:04:29.783797 28942 net.cpp:156] Memory required for data: 343007600
I0621 11:04:29.783802 28942 layer_factory.hpp:77] Creating layer loss
I0621 11:04:29.783807 28942 net.cpp:91] Creating Layer loss
I0621 11:04:29.783808 28942 net.cpp:425] loss <- fc8_emotion6
I0621 11:04:29.783812 28942 net.cpp:425] loss <- label
I0621 11:04:29.783818 28942 net.cpp:399] loss -> loss
I0621 11:04:29.783828 28942 layer_factory.hpp:77] Creating layer loss
…
I0621 11:04:29.784390 28942 net.cpp:313] The NetState phase (1) differed from the phase (0) specified by a rule in layer data
I0621 11:04:29.784510 28942 net.cpp:49] Initializing net from parameters: 
name: "Places205ForEmotion6"
state {
  phase: TEST
}
layer {
  name: "data"
  type: "ImageData"
  top: "data"
  top: "label"
  include {
    phase: TEST
  }
  transform_param {
    mirror: false
    crop_size: 227
    mean_file: "places205.imagenet_mean.binaryproto"
  }
  image_data_param {
    source: "em6_posneg_test.txt"
    batch_size: 50
    new_height: 256
    new_width: 256
  }
}
layer {
  name: "conv1"
  type: "Convolution"
  bottom: "data"
  top: "conv1"
  param {
    lr_mult: 1
    decay_mult: 1
  }
  param {
    lr_mult: 2
    decay_mult: 0
  }
  convolution_param {
    num_output: 96
    kernel_size: 11
    stride: 4
    weight_filler {
      type: "gaussian"
      std: 0.01
    }
    bias_filler {
      type: "constant"
      value: 0
    }
  }
}
layer {
  name: "relu1"
  type: "ReLU"
  bottom: "conv1"
  top: "conv1"
}
layer {
  name: "pool1"
  type: "Pooling"
  bottom: "conv1"
  top: "pool1"
  pooling_param {
    pool: MAX
    kernel_size: 3
    stride: 2
  }
}
layer {
  name: "norm1"
  type: "LRN"
  bottom: "pool1"
  top: "norm1"
  lrn_param {
    local_size: 5
    alpha: 0.0001
    beta: 0.75
  }
}
layer {
  name: "conv2"
  type: "Convolution"
  bottom: "norm1"
  top: "conv2"
  param {
    lr_mult: 1
    decay_mult: 1
  }
  param {
    lr_mult: 2
    decay_mult: 0
  }
  convolution_param {
    num_output: 256
    pad: 2
    kernel_size: 5
    group: 2
    weight_filler {
      type: "gaussian"
      std: 0.01
    }
    bias_filler {
      type: "constant"
      value: 1
    }
  }
}
layer {
  name: "relu2"
  type: "ReLU"
  bottom: "conv2"
  top: "conv2"
}
layer {
  name: "pool2"
  type: "Pooling"
  bottom: "conv2"
  top: "pool2"
  pooling_param {
    pool: MAX
    kernel_size: 3
    stride: 2
  }
}
layer {
  name: "norm2"
  type: "LRN"
  bottom: "pool2"
  top: "norm2"
  lrn_param {
    local_size: 5
    alpha: 0.0001
    beta: 0.75
  }
}
layer {
  name: "conv3"
  type: "Convolution"
  bottom: "norm2"
  top: "conv3"
  param {
    lr_mult: 1
    decay_mult: 1
  }
  param {
    lr_mult: 2
    decay_mult: 0
  }
  convolution_param {
    num_output: 384
    pad: 1
    kernel_size: 3
    weight_filler {
      type: "gaussian"
      std: 0.01
    }
    bias_filler {
      type: "constant"
      value: 0
    }
  }
}
layer {
  name: "relu3"
  type: "ReLU"
  bottom: "conv3"
  top: "conv3"
}
layer {
  name: "conv4"
  type: "Convolution"
  bottom: "conv3"
  top: "conv4"
  param {
    lr_mult: 1
    decay_mult: 1
  }
  param {
    lr_mult: 2
    decay_mult: 0
  }
  convolution_param {
    num_output: 384
    pad: 1
    kernel_size: 3
    group: 2
    weight_filler {
      type: "gaussian"
      std: 0.01
    }
    bias_filler {
      type: "constant"
      value: 1
    }
  }
}
layer {
  name: "relu4"
  type: "ReLU"
  bottom: "conv4"
  top: "conv4"
}
layer {
  name: "conv5"
  type: "Convolution"
  bottom: "conv4"
  top: "conv5"
  param {
    lr_mult: 1
    decay_mult: 1
  }
  param {
    lr_mult: 2
    decay_mult: 0
  }
  convolution_param {
    num_output: 256
    pad: 1
    kernel_size: 3
    group: 2
    weight_filler {
      type: "gaussian"
      std: 0.01
    }
    bias_filler {
      type: "constant"
      value: 1
    }
  }
}
layer {
  name: "relu5"
  type: "ReLU"
  bottom: "conv5"
  top: "conv5"
}
layer {
  name: "pool5"
  type: "Pooling"
  bottom: "conv5"
  top: "pool5"
  pooling_param {
    pool: MAX
    kernel_size: 3
    stride: 2
  }
}
layer {
  name: "fc6"
  type: "InnerProduct"
  bottom: "pool5"
  top: "fc6"
  param {
    lr_mult: 1
    decay_mult: 1
  }
  param {
    lr_mult: 2
    decay_mult: 0
  }
  inner_product_param {
    num_output: 4096
    weight_filler {
      type: "gaussian"
      std: 0.005
    }
    bias_filler {
      type: "constant"
      value: 1
    }
  }
}
layer {
  name: "relu6"
  type: "ReLU"
  bottom: "fc6"
  top: "fc6"
}
layer {
  name: "drop6"
  type: "Dropout"
  bottom: "fc6"
  top: "fc6"
  dropout_param {
    dropout_ratio: 0.5
  }
}
layer {
  name: "fc7"
  type: "InnerProduct"
  bottom: "fc6"
  top: "fc7"
  param {
    lr_mult: 1
    decay_mult: 1
  }
  param {
    lr_mult: 2
    decay_mult: 0
  }
  inner_product_param {
    num_output: 4096
    weight_filler {
      type: "gaussian"
      std: 0.005
    }
    bias_filler {
      type: "constant"
      value: 1
    }
  }
}
layer {
  name: "relu7"
  type: "ReLU"
  bottom: "fc7"
  top: "fc7"
}
layer {
  name: "drop7"
  type: "Dropout"
  bottom: "fc7"
  top: "fc7"
  dropout_param {
    dropout_ratio: 0.5
  }
}
layer {
  name: "fc8_emotion6"
  type: "InnerProduct"
  bottom: "fc7"
  top: "fc8_emotion6"
  param {
    lr_mult: 1
    decay_mult: 1
  }
  param {
    lr_mult: 2
    decay_mult: 0
  }
  inner_product_param {
    num_output: 2
    weight_filler {
      type: "gaussian"
      std: 0.01
    }
    bias_filler {
      type: "constant"
      value: 0
    }
  }
}
layer {
  name: "accuracy"
  type: "Accuracy"
  bottom: "fc8_emotion6"
  bottom: "label"
  top: "accuracy"
  include {
    phase: TEST
  }
}
layer {
  name: "loss"
  type: "SoftmaxWithLoss"
  bottom: "fc8_emotion6"
  bottom: "label"
  top: "loss"
}
I0621 11:04:29.784595 28942 layer_factory.hpp:77] Creating layer data
I0621 11:04:29.784607 28942 net.cpp:91] Creating Layer data
I0621 11:04:29.784613 28942 net.cpp:399] data -> data
I0621 11:04:29.784621 28942 net.cpp:399] data -> label
I0621 11:04:29.784627 28942 data_transformer.cpp:25] Loading mean file from: places205.imagenet_mean.binaryproto
I0621 11:04:29.786000 28942 image_data_layer.cpp:38] Opening file em6_posneg_test.txt
I0621 11:04:29.786119 28942 image_data_layer.cpp:58] A total of 397 images.
I0621 11:04:29.789134 28942 image_data_layer.cpp:85] output data size: 50,3,227,227
I0621 11:04:29.843686 28942 net.cpp:141] Setting up data
I0621 11:04:29.843714 28942 net.cpp:148] Top shape: 50 3 227 227 (7729350)
I0621 11:04:29.843719 28942 net.cpp:148] Top shape: 50 (50)
I0621 11:04:29.843720 28942 net.cpp:156] Memory required for data: 30917600
I0621 11:04:29.843725 28942 layer_factory.hpp:77] Creating layer label_data_1_split
I0621 11:04:29.843736 28942 net.cpp:91] Creating Layer label_data_1_split
I0621 11:04:29.843739 28942 net.cpp:425] label_data_1_split <- label
I0621 11:04:29.843745 28942 net.cpp:399] label_data_1_split -> label_data_1_split_0
I0621 11:04:29.843753 28942 net.cpp:399] label_data_1_split -> label_data_1_split_1
I0621 11:04:29.843801 28942 net.cpp:141] Setting up label_data_1_split
I0621 11:04:29.843806 28942 net.cpp:148] Top shape: 50 (50)
I0621 11:04:29.843808 28942 net.cpp:148] Top shape: 50 (50)
I0621 11:04:29.843811 28942 net.cpp:156] Memory required for data: 30918000
I0621 11:04:29.843812 28942 layer_factory.hpp:77] Creating layer conv1
I0621 11:04:29.843822 28942 net.cpp:91] Creating Layer conv1
I0621 11:04:29.843825 28942 net.cpp:425] conv1 <- data
I0621 11:04:29.843829 28942 net.cpp:399] conv1 -> conv1
I0621 11:04:29.844936 28942 net.cpp:141] Setting up conv1
I0621 11:04:29.844947 28942 net.cpp:148] Top shape: 50 96 55 55 (14520000)
I0621 11:04:29.844949 28942 net.cpp:156] Memory required for data: 88998000
I0621 11:04:29.844959 28942 layer_factory.hpp:77] Creating layer relu1
I0621 11:04:29.844964 28942 net.cpp:91] Creating Layer relu1
I0621 11:04:29.844965 28942 net.cpp:425] relu1 <- conv1
I0621 11:04:29.844969 28942 net.cpp:386] relu1 -> conv1 (in-place)
I0621 11:04:29.845178 28942 net.cpp:141] Setting up relu1
I0621 11:04:29.845186 28942 net.cpp:148] Top shape: 50 96 55 55 (14520000)
I0621 11:04:29.845190 28942 net.cpp:156] Memory required for data: 147078000
I0621 11:04:29.845192 28942 layer_factory.hpp:77] Creating layer pool1
I0621 11:04:29.845198 28942 net.cpp:91] Creating Layer pool1
I0621 11:04:29.845201 28942 net.cpp:425] pool1 <- conv1
I0621 11:04:29.845206 28942 net.cpp:399] pool1 -> pool1
I0621 11:04:29.845239 28942 net.cpp:141] Setting up pool1
I0621 11:04:29.845257 28942 net.cpp:148] Top shape: 50 96 27 27 (3499200)
I0621 11:04:29.845260 28942 net.cpp:156] Memory required for data: 161074800
I0621 11:04:29.845263 28942 layer_factory.hpp:77] Creating layer norm1
I0621 11:04:29.845268 28942 net.cpp:91] Creating Layer norm1
I0621 11:04:29.845270 28942 net.cpp:425] norm1 <- pool1
I0621 11:04:29.845274 28942 net.cpp:399] norm1 -> norm1
I0621 11:04:29.845414 28942 net.cpp:141] Setting up norm1
I0621 11:04:29.845422 28942 net.cpp:148] Top shape: 50 96 27 27 (3499200)
I0621 11:04:29.845423 28942 net.cpp:156] Memory required for data: 175071600
I0621 11:04:29.845427 28942 layer_factory.hpp:77] Creating layer conv2
I0621 11:04:29.845432 28942 net.cpp:91] Creating Layer conv2
I0621 11:04:29.845435 28942 net.cpp:425] conv2 <- norm1
I0621 11:04:29.845439 28942 net.cpp:399] conv2 -> conv2
I0621 11:04:29.858527 28942 net.cpp:141] Setting up conv2
I0621 11:04:29.858542 28942 net.cpp:148] Top shape: 50 256 27 27 (9331200)
I0621 11:04:29.858544 28942 net.cpp:156] Memory required for data: 212396400
I0621 11:04:29.858558 28942 layer_factory.hpp:77] Creating layer relu2
I0621 11:04:29.858573 28942 net.cpp:91] Creating Layer relu2
I0621 11:04:29.858577 28942 net.cpp:425] relu2 <- conv2
I0621 11:04:29.858580 28942 net.cpp:386] relu2 -> conv2 (in-place)
I0621 11:04:29.858703 28942 net.cpp:141] Setting up relu2
I0621 11:04:29.858711 28942 net.cpp:148] Top shape: 50 256 27 27 (9331200)
I0621 11:04:29.858712 28942 net.cpp:156] Memory required for data: 249721200
I0621 11:04:29.858716 28942 layer_factory.hpp:77] Creating layer pool2
I0621 11:04:29.858721 28942 net.cpp:91] Creating Layer pool2
I0621 11:04:29.858723 28942 net.cpp:425] pool2 <- conv2
I0621 11:04:29.858727 28942 net.cpp:399] pool2 -> pool2
I0621 11:04:29.858762 28942 net.cpp:141] Setting up pool2
I0621 11:04:29.858765 28942 net.cpp:148] Top shape: 50 256 13 13 (2163200)
I0621 11:04:29.858767 28942 net.cpp:156] Memory required for data: 258374000
I0621 11:04:29.858770 28942 layer_factory.hpp:77] Creating layer norm2
I0621 11:04:29.858774 28942 net.cpp:91] Creating Layer norm2
I0621 11:04:29.858777 28942 net.cpp:425] norm2 <- pool2
I0621 11:04:29.858780 28942 net.cpp:399] norm2 -> norm2
I0621 11:04:29.859007 28942 net.cpp:141] Setting up norm2
I0621 11:04:29.859015 28942 net.cpp:148] Top shape: 50 256 13 13 (2163200)
I0621 11:04:29.859019 28942 net.cpp:156] Memory required for data: 267026800
I0621 11:04:29.859020 28942 layer_factory.hpp:77] Creating layer conv3
I0621 11:04:29.859028 28942 net.cpp:91] Creating Layer conv3
I0621 11:04:29.859030 28942 net.cpp:425] conv3 <- norm2
I0621 11:04:29.859035 28942 net.cpp:399] conv3 -> conv3
I0621 11:04:29.866626 28942 net.cpp:141] Setting up conv3
I0621 11:04:29.866639 28942 net.cpp:148] Top shape: 50 384 13 13 (3244800)
I0621 11:04:29.866641 28942 net.cpp:156] Memory required for data: 280006000
I0621 11:04:29.866649 28942 layer_factory.hpp:77] Creating layer relu3
I0621 11:04:29.866654 28942 net.cpp:91] Creating Layer relu3
I0621 11:04:29.866657 28942 net.cpp:425] relu3 <- conv3
I0621 11:04:29.866662 28942 net.cpp:386] relu3 -> conv3 (in-place)
I0621 11:04:29.866788 28942 net.cpp:141] Setting up relu3
I0621 11:04:29.866794 28942 net.cpp:148] Top shape: 50 384 13 13 (3244800)
I0621 11:04:29.866796 28942 net.cpp:156] Memory required for data: 292985200
I0621 11:04:29.866799 28942 layer_factory.hpp:77] Creating layer conv4
I0621 11:04:29.866806 28942 net.cpp:91] Creating Layer conv4
I0621 11:04:29.866808 28942 net.cpp:425] conv4 <- conv3
I0621 11:04:29.866812 28942 net.cpp:399] conv4 -> conv4
I0621 11:04:29.873206 28942 net.cpp:141] Setting up conv4
I0621 11:04:29.873219 28942 net.cpp:148] Top shape: 50 384 13 13 (3244800)
I0621 11:04:29.873220 28942 net.cpp:156] Memory required for data: 305964400
I0621 11:04:29.873225 28942 layer_factory.hpp:77] Creating layer relu4
I0621 11:04:29.873230 28942 net.cpp:91] Creating Layer relu4
I0621 11:04:29.873234 28942 net.cpp:425] relu4 <- conv4
I0621 11:04:29.873237 28942 net.cpp:386] relu4 -> conv4 (in-place)
I0621 11:04:29.873461 28942 net.cpp:141] Setting up relu4
I0621 11:04:29.873469 28942 net.cpp:148] Top shape: 50 384 13 13 (3244800)
I0621 11:04:29.873472 28942 net.cpp:156] Memory required for data: 318943600
I0621 11:04:29.873476 28942 layer_factory.hpp:77] Creating layer conv5
I0621 11:04:29.873482 28942 net.cpp:91] Creating Layer conv5
I0621 11:04:29.873484 28942 net.cpp:425] conv5 <- conv4
I0621 11:04:29.873489 28942 net.cpp:399] conv5 -> conv5
I0621 11:04:29.878190 28942 net.cpp:141] Setting up conv5
I0621 11:04:29.878202 28942 net.cpp:148] Top shape: 50 256 13 13 (2163200)
I0621 11:04:29.878204 28942 net.cpp:156] Memory required for data: 327596400
I0621 11:04:29.878213 28942 layer_factory.hpp:77] Creating layer relu5
I0621 11:04:29.878218 28942 net.cpp:91] Creating Layer relu5
I0621 11:04:29.878221 28942 net.cpp:425] relu5 <- conv5
I0621 11:04:29.878224 28942 net.cpp:386] relu5 -> conv5 (in-place)
I0621 11:04:29.878350 28942 net.cpp:141] Setting up relu5
I0621 11:04:29.878356 28942 net.cpp:148] Top shape: 50 256 13 13 (2163200)
I0621 11:04:29.878358 28942 net.cpp:156] Memory required for data: 336249200
I0621 11:04:29.878374 28942 layer_factory.hpp:77] Creating layer pool5
I0621 11:04:29.878382 28942 net.cpp:91] Creating Layer pool5
I0621 11:04:29.878386 28942 net.cpp:425] pool5 <- conv5
I0621 11:04:29.878389 28942 net.cpp:399] pool5 -> pool5
I0621 11:04:29.878427 28942 net.cpp:141] Setting up pool5
I0621 11:04:29.878432 28942 net.cpp:148] Top shape: 50 256 6 6 (460800)
I0621 11:04:29.878434 28942 net.cpp:156] Memory required for data: 338092400
I0621 11:04:29.878437 28942 layer_factory.hpp:77] Creating layer fc6
I0621 11:04:29.878443 28942 net.cpp:91] Creating Layer fc6
I0621 11:04:29.878444 28942 net.cpp:425] fc6 <- pool5
I0621 11:04:29.878448 28942 net.cpp:399] fc6 -> fc6
I0621 11:04:30.166157 28942 net.cpp:141] Setting up fc6
I0621 11:04:30.166180 28942 net.cpp:148] Top shape: 50 4096 (204800)
I0621 11:04:30.166183 28942 net.cpp:156] Memory required for data: 338911600
I0621 11:04:30.166191 28942 layer_factory.hpp:77] Creating layer relu6
I0621 11:04:30.166199 28942 net.cpp:91] Creating Layer relu6
I0621 11:04:30.166203 28942 net.cpp:425] relu6 <- fc6
I0621 11:04:30.166208 28942 net.cpp:386] relu6 -> fc6 (in-place)
I0621 11:04:30.166546 28942 net.cpp:141] Setting up relu6
I0621 11:04:30.166554 28942 net.cpp:148] Top shape: 50 4096 (204800)
I0621 11:04:30.166558 28942 net.cpp:156] Memory required for data: 339730800
I0621 11:04:30.166560 28942 layer_factory.hpp:77] Creating layer drop6
I0621 11:04:30.166565 28942 net.cpp:91] Creating Layer drop6
I0621 11:04:30.166568 28942 net.cpp:425] drop6 <- fc6
I0621 11:04:30.166573 28942 net.cpp:386] drop6 -> fc6 (in-place)
I0621 11:04:30.166599 28942 net.cpp:141] Setting up drop6
I0621 11:04:30.166604 28942 net.cpp:148] Top shape: 50 4096 (204800)
I0621 11:04:30.166606 28942 net.cpp:156] Memory required for data: 340550000
I0621 11:04:30.166609 28942 layer_factory.hpp:77] Creating layer fc7
I0621 11:04:30.166615 28942 net.cpp:91] Creating Layer fc7
I0621 11:04:30.166616 28942 net.cpp:425] fc7 <- fc6
I0621 11:04:30.166620 28942 net.cpp:399] fc7 -> fc7
I0621 11:04:30.294656 28942 net.cpp:141] Setting up fc7
I0621 11:04:30.294680 28942 net.cpp:148] Top shape: 50 4096 (204800)
I0621 11:04:30.294682 28942 net.cpp:156] Memory required for data: 341369200
I0621 11:04:30.294690 28942 layer_factory.hpp:77] Creating layer relu7
I0621 11:04:30.294698 28942 net.cpp:91] Creating Layer relu7
I0621 11:04:30.294703 28942 net.cpp:425] relu7 <- fc7
I0621 11:04:30.294708 28942 net.cpp:386] relu7 -> fc7 (in-place)
I0621 11:04:30.294878 28942 net.cpp:141] Setting up relu7
I0621 11:04:30.294884 28942 net.cpp:148] Top shape: 50 4096 (204800)
I0621 11:04:30.294888 28942 net.cpp:156] Memory required for data: 342188400
I0621 11:04:30.294889 28942 layer_factory.hpp:77] Creating layer drop7
I0621 11:04:30.294895 28942 net.cpp:91] Creating Layer drop7
I0621 11:04:30.294898 28942 net.cpp:425] drop7 <- fc7
I0621 11:04:30.294901 28942 net.cpp:386] drop7 -> fc7 (in-place)
I0621 11:04:30.294927 28942 net.cpp:141] Setting up drop7
I0621 11:04:30.294931 28942 net.cpp:148] Top shape: 50 4096 (204800)
I0621 11:04:30.294934 28942 net.cpp:156] Memory required for data: 343007600
I0621 11:04:30.294936 28942 layer_factory.hpp:77] Creating layer fc8_emotion6
I0621 11:04:30.294941 28942 net.cpp:91] Creating Layer fc8_emotion6
I0621 11:04:30.294945 28942 net.cpp:425] fc8_emotion6 <- fc7
I0621 11:04:30.294948 28942 net.cpp:399] fc8_emotion6 -> fc8_emotion6
I0621 11:04:30.295088 28942 net.cpp:141] Setting up fc8_emotion6
I0621 11:04:30.295094 28942 net.cpp:148] Top shape: 50 2 (100)
I0621 11:04:30.295095 28942 net.cpp:156] Memory required for data: 343008000
I0621 11:04:30.295099 28942 layer_factory.hpp:77] Creating layer fc8_emotion6_fc8_emotion6_0_split
I0621 11:04:30.295104 28942 net.cpp:91] Creating Layer fc8_emotion6_fc8_emotion6_0_split
I0621 11:04:30.295106 28942 net.cpp:425] fc8_emotion6_fc8_emotion6_0_split <- fc8_emotion6
I0621 11:04:30.295110 28942 net.cpp:399] fc8_emotion6_fc8_emotion6_0_split -> fc8_emotion6_fc8_emotion6_0_split_0
I0621 11:04:30.295115 28942 net.cpp:399] fc8_emotion6_fc8_emotion6_0_split -> fc8_emotion6_fc8_emotion6_0_split_1
I0621 11:04:30.295161 28942 net.cpp:141] Setting up fc8_emotion6_fc8_emotion6_0_split
I0621 11:04:30.295164 28942 net.cpp:148] Top shape: 50 2 (100)
I0621 11:04:30.295167 28942 net.cpp:148] Top shape: 50 2 (100)
I0621 11:04:30.295169 28942 net.cpp:156] Memory required for data: 343008800
I0621 11:04:30.295171 28942 layer_factory.hpp:77] Creating layer accuracy
I0621 11:04:30.295176 28942 net.cpp:91] Creating Layer accuracy
I0621 11:04:30.295179 28942 net.cpp:425] accuracy <- fc8_emotion6_fc8_emotion6_0_split_0
I0621 11:04:30.295182 28942 net.cpp:425] accuracy <- label_data_1_split_0
I0621 11:04:30.295186 28942 net.cpp:399] accuracy -> accuracy
…
