…
I0621 20:52:40.447399  3435 net.cpp:313] The NetState phase (0) differed from the phase (1) specified by a rule in layer accuracy
I0621 20:52:40.447660  3435 net.cpp:49] Initializing net from parameters: 
name: "Places205ForEmotion6"
state {
  phase: TRAIN
}
layer {
  name: "data"
  type: "ImageData"
  top: "data"
  top: "label"
  include {
    phase: TRAIN
  }
  transform_param {
    mirror: true
    crop_size: 227
    mean_file: "places205.imagenet_mean.binaryproto"
  }
  image_data_param {
    source: "em6_posneg_train.txt"
    batch_size: 50
    new_height: 256
    new_width: 256
  }
}
layer {
  name: "conv1"
  type: "Convolution"
  bottom: "data"
  top: "conv1"
  param {
    lr_mult: 1
    decay_mult: 1
  }
  param {
    lr_mult: 2
    decay_mult: 0
  }
  convolution_param {
    num_output: 96
    kernel_size: 11
    stride: 4
    weight_filler {
      type: "gaussian"
      std: 0.01
    }
    bias_filler {
      type: "constant"
      value: 0
    }
  }
}
layer {
  name: "relu1"
  type: "ReLU"
  bottom: "conv1"
  top: "conv1"
}
layer {
  name: "pool1"
  type: "Pooling"
  bottom: "conv1"
  top: "pool1"
  pooling_param {
    pool: MAX
    kernel_size: 3
    stride: 2
  }
}
layer {
  name: "norm1"
  type: "LRN"
  bottom: "pool1"
  top: "norm1"
  lrn_param {
    local_size: 5
    alpha: 0.0001
    beta: 0.75
  }
}
layer {
  name: "conv2"
  type: "Convolution"
  bottom: "norm1"
  top: "conv2"
  param {
    lr_mult: 1
    decay_mult: 1
  }
  param {
    lr_mult: 2
    decay_mult: 0
  }
  convolution_param {
    num_output: 256
    pad: 2
    kernel_size: 5
    group: 2
    weight_filler {
      type: "gaussian"
      std: 0.01
    }
    bias_filler {
      type: "constant"
      value: 1
    }
  }
}
layer {
  name: "relu2"
  type: "ReLU"
  bottom: "conv2"
  top: "conv2"
}
layer {
  name: "pool2"
  type: "Pooling"
  bottom: "conv2"
  top: "pool2"
  pooling_param {
    pool: MAX
    kernel_size: 3
    stride: 2
  }
}
layer {
  name: "norm2"
  type: "LRN"
  bottom: "pool2"
  top: "norm2"
  lrn_param {
    local_size: 5
    alpha: 0.0001
    beta: 0.75
  }
}
layer {
  name: "conv3"
  type: "Convolution"
  bottom: "norm2"
  top: "conv3"
  param {
    lr_mult: 1
    decay_mult: 1
  }
  param {
    lr_mult: 2
    decay_mult: 0
  }
  convolution_param {
    num_output: 384
    pad: 1
    kernel_size: 3
    weight_filler {
      type: "gaussian"
      std: 0.01
    }
    bias_filler {
      type: "constant"
      value: 0
    }
  }
}
layer {
  name: "relu3"
  type: "ReLU"
  bottom: "conv3"
  top: "conv3"
}
layer {
  name: "conv4"
  type: "Convolution"
  bottom: "conv3"
  top: "conv4"
  param {
    lr_mult: 1
    decay_mult: 1
  }
  param {
    lr_mult: 2
    decay_mult: 0
  }
  convolution_param {
    num_output: 384
    pad: 1
    kernel_size: 3
    group: 2
    weight_filler {
      type: "gaussian"
      std: 0.01
    }
    bias_filler {
      type: "constant"
      value: 1
    }
  }
}
layer {
  name: "relu4"
  type: "ReLU"
  bottom: "conv4"
  top: "conv4"
}
layer {
  name: "conv5"
  type: "Convolution"
  bottom: "conv4"
  top: "conv5"
  param {
    lr_mult: 1
    decay_mult: 1
  }
  param {
    lr_mult: 2
    decay_mult: 0
  }
  convolution_param {
    num_output: 256
    pad: 1
    kernel_size: 3
    group: 2
    weight_filler {
      type: "gaussian"
      std: 0.01
    }
    bias_filler {
      type: "constant"
      value: 1
    }
  }
}
layer {
  name: "relu5"
  type: "ReLU"
  bottom: "conv5"
  top: "conv5"
}
layer {
  name: "pool5"
  type: "Pooling"
  bottom: "conv5"
  top: "pool5"
  pooling_param {
    pool: MAX
    kernel_size: 3
    stride: 2
  }
}
layer {
  name: "fc6"
  type: "InnerProduct"
  bottom: "pool5"
  top: "fc6"
  param {
    lr_mult: 1
    decay_mult: 1
  }
  param {
    lr_mult: 2
    decay_mult: 0
  }
  inner_product_param {
    num_output: 4096
    weight_filler {
      type: "gaussian"
      std: 0.005
    }
    bias_filler {
      type: "constant"
      value: 1
    }
  }
}
layer {
  name: "relu6"
  type: "ReLU"
  bottom: "fc6"
  top: "fc6"
}
layer {
  name: "drop6"
  type: "Dropout"
  bottom: "fc6"
  top: "fc6"
  dropout_param {
    dropout_ratio: 0.5
  }
}
layer {
  name: "fc7"
  type: "InnerProduct"
  bottom: "fc6"
  top: "fc7"
  param {
    lr_mult: 1
    decay_mult: 1
  }
  param {
    lr_mult: 2
    decay_mult: 0
  }
  inner_product_param {
    num_output: 4096
    weight_filler {
      type: "gaussian"
      std: 0.005
    }
    bias_filler {
      type: "constant"
      value: 1
    }
  }
}
layer {
  name: "relu7"
  type: "ReLU"
  bottom: "fc7"
  top: "fc7"
}
layer {
  name: "drop7"
  type: "Dropout"
  bottom: "fc7"
  top: "fc7"
  dropout_param {
    dropout_ratio: 0.5
  }
}
layer {
  name: "fc8_emotion6"
  type: "InnerProduct"
  bottom: "fc7"
  top: "fc8_emotion6"
  param {
    lr_mult: 10
    decay_mult: 1
  }
  param {
    lr_mult: 20
    decay_mult: 0
  }
  inner_product_param {
    num_output: 2
    weight_filler {
      type: "gaussian"
      std: 0.01
    }
    bias_filler {
      type: "constant"
      value: 0
    }
  }
}
layer {
  name: "loss"
  type: "SoftmaxWithLoss"
  bottom: "fc8_emotion6"
  bottom: "label"
  top: "loss"
}
I0621 20:52:40.447811  3435 layer_factory.hpp:77] Creating layer data
I0621 20:52:40.447849  3435 net.cpp:91] Creating Layer data
I0621 20:52:40.447860  3435 net.cpp:399] data -> data
I0621 20:52:40.447892  3435 net.cpp:399] data -> label
I0621 20:52:40.447911  3435 data_transformer.cpp:25] Loading mean file from: places205.imagenet_mean.binaryproto
I0621 20:52:40.575724  3435 image_data_layer.cpp:38] Opening file em6_posneg_train.txt
I0621 20:52:40.700527  3435 image_data_layer.cpp:58] A total of 1583 images.
I0621 20:52:40.711339  3435 image_data_layer.cpp:85] output data size: 50,3,227,227
I0621 20:52:40.788919  3435 net.cpp:141] Setting up data
I0621 20:52:40.788959  3435 net.cpp:148] Top shape: 50 3 227 227 (7729350)
I0621 20:52:40.788966  3435 net.cpp:148] Top shape: 50 (50)
I0621 20:52:40.788970  3435 net.cpp:156] Memory required for data: 30917600
I0621 20:52:40.788980  3435 layer_factory.hpp:77] Creating layer conv1
I0621 20:52:40.789007  3435 net.cpp:91] Creating Layer conv1
I0621 20:52:40.789014  3435 net.cpp:425] conv1 <- data
I0621 20:52:40.789031  3435 net.cpp:399] conv1 -> conv1
I0621 20:52:41.942348  3435 net.cpp:141] Setting up conv1
I0621 20:52:41.942389  3435 net.cpp:148] Top shape: 50 96 55 55 (14520000)
I0621 20:52:41.942395  3435 net.cpp:156] Memory required for data: 88997600
I0621 20:52:41.942420  3435 layer_factory.hpp:77] Creating layer relu1
I0621 20:52:41.942435  3435 net.cpp:91] Creating Layer relu1
I0621 20:52:41.942440  3435 net.cpp:425] relu1 <- conv1
I0621 20:52:41.942447  3435 net.cpp:386] relu1 -> conv1 (in-place)
I0621 20:52:41.942798  3435 net.cpp:141] Setting up relu1
I0621 20:52:41.942813  3435 net.cpp:148] Top shape: 50 96 55 55 (14520000)
I0621 20:52:41.942818  3435 net.cpp:156] Memory required for data: 147077600
I0621 20:52:41.942823  3435 layer_factory.hpp:77] Creating layer pool1
I0621 20:52:41.942832  3435 net.cpp:91] Creating Layer pool1
I0621 20:52:41.942836  3435 net.cpp:425] pool1 <- conv1
I0621 20:52:41.942843  3435 net.cpp:399] pool1 -> pool1
I0621 20:52:41.942904  3435 net.cpp:141] Setting up pool1
I0621 20:52:41.942912  3435 net.cpp:148] Top shape: 50 96 27 27 (3499200)
I0621 20:52:41.942916  3435 net.cpp:156] Memory required for data: 161074400
I0621 20:52:41.942929  3435 layer_factory.hpp:77] Creating layer norm1
I0621 20:52:41.942958  3435 net.cpp:91] Creating Layer norm1
I0621 20:52:41.942963  3435 net.cpp:425] norm1 <- pool1
I0621 20:52:41.942970  3435 net.cpp:399] norm1 -> norm1
I0621 20:52:41.943217  3435 net.cpp:141] Setting up norm1
I0621 20:52:41.943228  3435 net.cpp:148] Top shape: 50 96 27 27 (3499200)
I0621 20:52:41.943233  3435 net.cpp:156] Memory required for data: 175071200
I0621 20:52:41.943238  3435 layer_factory.hpp:77] Creating layer conv2
I0621 20:52:41.943249  3435 net.cpp:91] Creating Layer conv2
I0621 20:52:41.943254  3435 net.cpp:425] conv2 <- norm1
I0621 20:52:41.943261  3435 net.cpp:399] conv2 -> conv2
I0621 20:52:41.950243  3435 net.cpp:141] Setting up conv2
I0621 20:52:41.950263  3435 net.cpp:148] Top shape: 50 256 27 27 (9331200)
I0621 20:52:41.950268  3435 net.cpp:156] Memory required for data: 212396000
I0621 20:52:41.950283  3435 layer_factory.hpp:77] Creating layer relu2
I0621 20:52:41.950291  3435 net.cpp:91] Creating Layer relu2
I0621 20:52:41.950296  3435 net.cpp:425] relu2 <- conv2
I0621 20:52:41.950302  3435 net.cpp:386] relu2 -> conv2 (in-place)
I0621 20:52:41.950531  3435 net.cpp:141] Setting up relu2
I0621 20:52:41.950543  3435 net.cpp:148] Top shape: 50 256 27 27 (9331200)
I0621 20:52:41.950547  3435 net.cpp:156] Memory required for data: 249720800
I0621 20:52:41.950552  3435 layer_factory.hpp:77] Creating layer pool2
I0621 20:52:41.950561  3435 net.cpp:91] Creating Layer pool2
I0621 20:52:41.950564  3435 net.cpp:425] pool2 <- conv2
I0621 20:52:41.950573  3435 net.cpp:399] pool2 -> pool2
I0621 20:52:41.950625  3435 net.cpp:141] Setting up pool2
I0621 20:52:41.950634  3435 net.cpp:148] Top shape: 50 256 13 13 (2163200)
I0621 20:52:41.950639  3435 net.cpp:156] Memory required for data: 258373600
I0621 20:52:41.950642  3435 layer_factory.hpp:77] Creating layer norm2
I0621 20:52:41.950654  3435 net.cpp:91] Creating Layer norm2
I0621 20:52:41.950657  3435 net.cpp:425] norm2 <- pool2
I0621 20:52:41.950664  3435 net.cpp:399] norm2 -> norm2
I0621 20:52:41.951038  3435 net.cpp:141] Setting up norm2
I0621 20:52:41.951052  3435 net.cpp:148] Top shape: 50 256 13 13 (2163200)
I0621 20:52:41.951057  3435 net.cpp:156] Memory required for data: 267026400
I0621 20:52:41.951062  3435 layer_factory.hpp:77] Creating layer conv3
I0621 20:52:41.951099  3435 net.cpp:91] Creating Layer conv3
I0621 20:52:41.951104  3435 net.cpp:425] conv3 <- norm2
I0621 20:52:41.951113  3435 net.cpp:399] conv3 -> conv3
I0621 20:52:41.964890  3435 net.cpp:141] Setting up conv3
I0621 20:52:41.964912  3435 net.cpp:148] Top shape: 50 384 13 13 (3244800)
I0621 20:52:41.964917  3435 net.cpp:156] Memory required for data: 280005600
I0621 20:52:41.964929  3435 layer_factory.hpp:77] Creating layer relu3
I0621 20:52:41.964937  3435 net.cpp:91] Creating Layer relu3
I0621 20:52:41.964942  3435 net.cpp:425] relu3 <- conv3
I0621 20:52:41.964951  3435 net.cpp:386] relu3 -> conv3 (in-place)
I0621 20:52:41.965167  3435 net.cpp:141] Setting up relu3
I0621 20:52:41.965178  3435 net.cpp:148] Top shape: 50 384 13 13 (3244800)
I0621 20:52:41.965181  3435 net.cpp:156] Memory required for data: 292984800
I0621 20:52:41.965185  3435 layer_factory.hpp:77] Creating layer conv4
I0621 20:52:41.965198  3435 net.cpp:91] Creating Layer conv4
I0621 20:52:41.965201  3435 net.cpp:425] conv4 <- conv3
I0621 20:52:41.965211  3435 net.cpp:399] conv4 -> conv4
I0621 20:52:41.976179  3435 net.cpp:141] Setting up conv4
I0621 20:52:41.976197  3435 net.cpp:148] Top shape: 50 384 13 13 (3244800)
I0621 20:52:41.976200  3435 net.cpp:156] Memory required for data: 305964000
I0621 20:52:41.976208  3435 layer_factory.hpp:77] Creating layer relu4
I0621 20:52:41.976217  3435 net.cpp:91] Creating Layer relu4
I0621 20:52:41.976222  3435 net.cpp:425] relu4 <- conv4
I0621 20:52:41.976227  3435 net.cpp:386] relu4 -> conv4 (in-place)
I0621 20:52:41.976440  3435 net.cpp:141] Setting up relu4
I0621 20:52:41.976450  3435 net.cpp:148] Top shape: 50 384 13 13 (3244800)
I0621 20:52:41.976461  3435 net.cpp:156] Memory required for data: 318943200
I0621 20:52:41.976476  3435 layer_factory.hpp:77] Creating layer conv5
I0621 20:52:41.976488  3435 net.cpp:91] Creating Layer conv5
I0621 20:52:41.976492  3435 net.cpp:425] conv5 <- conv4
I0621 20:52:41.976501  3435 net.cpp:399] conv5 -> conv5
I0621 20:52:41.984463  3435 net.cpp:141] Setting up conv5
I0621 20:52:41.984480  3435 net.cpp:148] Top shape: 50 256 13 13 (2163200)
I0621 20:52:41.984485  3435 net.cpp:156] Memory required for data: 327596000
I0621 20:52:41.984496  3435 layer_factory.hpp:77] Creating layer relu5
I0621 20:52:41.984504  3435 net.cpp:91] Creating Layer relu5
I0621 20:52:41.984508  3435 net.cpp:425] relu5 <- conv5
I0621 20:52:41.984515  3435 net.cpp:386] relu5 -> conv5 (in-place)
I0621 20:52:41.984824  3435 net.cpp:141] Setting up relu5
I0621 20:52:41.984838  3435 net.cpp:148] Top shape: 50 256 13 13 (2163200)
I0621 20:52:41.984840  3435 net.cpp:156] Memory required for data: 336248800
I0621 20:52:41.984845  3435 layer_factory.hpp:77] Creating layer pool5
I0621 20:52:41.984853  3435 net.cpp:91] Creating Layer pool5
I0621 20:52:41.984856  3435 net.cpp:425] pool5 <- conv5
I0621 20:52:41.984864  3435 net.cpp:399] pool5 -> pool5
I0621 20:52:41.984915  3435 net.cpp:141] Setting up pool5
I0621 20:52:41.984925  3435 net.cpp:148] Top shape: 50 256 6 6 (460800)
I0621 20:52:41.984927  3435 net.cpp:156] Memory required for data: 338092000
I0621 20:52:41.984931  3435 layer_factory.hpp:77] Creating layer fc6
I0621 20:52:41.984942  3435 net.cpp:91] Creating Layer fc6
I0621 20:52:41.984946  3435 net.cpp:425] fc6 <- pool5
I0621 20:52:41.984953  3435 net.cpp:399] fc6 -> fc6
I0621 20:52:42.332226  3435 net.cpp:141] Setting up fc6
I0621 20:52:42.332252  3435 net.cpp:148] Top shape: 50 4096 (204800)
I0621 20:52:42.332257  3435 net.cpp:156] Memory required for data: 338911200
I0621 20:52:42.332264  3435 layer_factory.hpp:77] Creating layer relu6
I0621 20:52:42.332273  3435 net.cpp:91] Creating Layer relu6
I0621 20:52:42.332278  3435 net.cpp:425] relu6 <- fc6
I0621 20:52:42.332283  3435 net.cpp:386] relu6 -> fc6 (in-place)
I0621 20:52:42.332475  3435 net.cpp:141] Setting up relu6
I0621 20:52:42.332484  3435 net.cpp:148] Top shape: 50 4096 (204800)
I0621 20:52:42.332485  3435 net.cpp:156] Memory required for data: 339730400
I0621 20:52:42.332489  3435 layer_factory.hpp:77] Creating layer drop6
I0621 20:52:42.332494  3435 net.cpp:91] Creating Layer drop6
I0621 20:52:42.332496  3435 net.cpp:425] drop6 <- fc6
I0621 20:52:42.332502  3435 net.cpp:386] drop6 -> fc6 (in-place)
I0621 20:52:42.332530  3435 net.cpp:141] Setting up drop6
I0621 20:52:42.332535  3435 net.cpp:148] Top shape: 50 4096 (204800)
I0621 20:52:42.332537  3435 net.cpp:156] Memory required for data: 340549600
I0621 20:52:42.332540  3435 layer_factory.hpp:77] Creating layer fc7
I0621 20:52:42.332548  3435 net.cpp:91] Creating Layer fc7
I0621 20:52:42.332551  3435 net.cpp:425] fc7 <- fc6
I0621 20:52:42.332556  3435 net.cpp:399] fc7 -> fc7
I0621 20:52:42.479558  3435 net.cpp:141] Setting up fc7
I0621 20:52:42.479588  3435 net.cpp:148] Top shape: 50 4096 (204800)
I0621 20:52:42.479591  3435 net.cpp:156] Memory required for data: 341368800
I0621 20:52:42.479600  3435 layer_factory.hpp:77] Creating layer relu7
I0621 20:52:42.479609  3435 net.cpp:91] Creating Layer relu7
I0621 20:52:42.479612  3435 net.cpp:425] relu7 <- fc7
I0621 20:52:42.479617  3435 net.cpp:386] relu7 -> fc7 (in-place)
I0621 20:52:42.479979  3435 net.cpp:141] Setting up relu7
I0621 20:52:42.479989  3435 net.cpp:148] Top shape: 50 4096 (204800)
I0621 20:52:42.479991  3435 net.cpp:156] Memory required for data: 342188000
I0621 20:52:42.479995  3435 layer_factory.hpp:77] Creating layer drop7
I0621 20:52:42.480001  3435 net.cpp:91] Creating Layer drop7
I0621 20:52:42.480005  3435 net.cpp:425] drop7 <- fc7
I0621 20:52:42.480008  3435 net.cpp:386] drop7 -> fc7 (in-place)
I0621 20:52:42.480038  3435 net.cpp:141] Setting up drop7
I0621 20:52:42.480044  3435 net.cpp:148] Top shape: 50 4096 (204800)
I0621 20:52:42.480046  3435 net.cpp:156] Memory required for data: 343007200
I0621 20:52:42.480057  3435 layer_factory.hpp:77] Creating layer fc8_emotion6
I0621 20:52:42.480072  3435 net.cpp:91] Creating Layer fc8_emotion6
I0621 20:52:42.480077  3435 net.cpp:425] fc8_emotion6 <- fc7
I0621 20:52:42.480082  3435 net.cpp:399] fc8_emotion6 -> fc8_emotion6
I0621 20:52:42.480621  3435 net.cpp:141] Setting up fc8_emotion6
I0621 20:52:42.480631  3435 net.cpp:148] Top shape: 50 2 (100)
I0621 20:52:42.480634  3435 net.cpp:156] Memory required for data: 343007600
I0621 20:52:42.480639  3435 layer_factory.hpp:77] Creating layer loss
I0621 20:52:42.480644  3435 net.cpp:91] Creating Layer loss
I0621 20:52:42.480648  3435 net.cpp:425] loss <- fc8_emotion6
I0621 20:52:42.480651  3435 net.cpp:425] loss <- label
I0621 20:52:42.480659  3435 net.cpp:399] loss -> loss
I0621 20:52:42.480671  3435 layer_factory.hpp:77] Creating layer loss
…
I0621 20:52:42.481294  3435 net.cpp:313] The NetState phase (1) differed from the phase (0) specified by a rule in layer data
I0621 20:52:42.481431  3435 net.cpp:49] Initializing net from parameters: 
name: "Places205ForEmotion6"
state {
  phase: TEST
}
layer {
  name: "data"
  type: "ImageData"
  top: "data"
  top: "label"
  include {
    phase: TEST
  }
  transform_param {
    mirror: false
    crop_size: 227
    mean_file: "places205.imagenet_mean.binaryproto"
  }
  image_data_param {
    source: "em6_posneg_test.txt"
    batch_size: 50
    new_height: 256
    new_width: 256
  }
}
layer {
  name: "conv1"
  type: "Convolution"
  bottom: "data"
  top: "conv1"
  param {
    lr_mult: 1
    decay_mult: 1
  }
  param {
    lr_mult: 2
    decay_mult: 0
  }
  convolution_param {
    num_output: 96
    kernel_size: 11
    stride: 4
    weight_filler {
      type: "gaussian"
      std: 0.01
    }
    bias_filler {
      type: "constant"
      value: 0
    }
  }
}
layer {
  name: "relu1"
  type: "ReLU"
  bottom: "conv1"
  top: "conv1"
}
layer {
  name: "pool1"
  type: "Pooling"
  bottom: "conv1"
  top: "pool1"
  pooling_param {
    pool: MAX
    kernel_size: 3
    stride: 2
  }
}
layer {
  name: "norm1"
  type: "LRN"
  bottom: "pool1"
  top: "norm1"
  lrn_param {
    local_size: 5
    alpha: 0.0001
    beta: 0.75
  }
}
layer {
  name: "conv2"
  type: "Convolution"
  bottom: "norm1"
  top: "conv2"
  param {
    lr_mult: 1
    decay_mult: 1
  }
  param {
    lr_mult: 2
    decay_mult: 0
  }
  convolution_param {
    num_output: 256
    pad: 2
    kernel_size: 5
    group: 2
    weight_filler {
      type: "gaussian"
      std: 0.01
    }
    bias_filler {
      type: "constant"
      value: 1
    }
  }
}
layer {
  name: "relu2"
  type: "ReLU"
  bottom: "conv2"
  top: "conv2"
}
layer {
  name: "pool2"
  type: "Pooling"
  bottom: "conv2"
  top: "pool2"
  pooling_param {
    pool: MAX
    kernel_size: 3
    stride: 2
  }
}
layer {
  name: "norm2"
  type: "LRN"
  bottom: "pool2"
  top: "norm2"
  lrn_param {
    local_size: 5
    alpha: 0.0001
    beta: 0.75
  }
}
layer {
  name: "conv3"
  type: "Convolution"
  bottom: "norm2"
  top: "conv3"
  param {
    lr_mult: 1
    decay_mult: 1
  }
  param {
    lr_mult: 2
    decay_mult: 0
  }
  convolution_param {
    num_output: 384
    pad: 1
    kernel_size: 3
    weight_filler {
      type: "gaussian"
      std: 0.01
    }
    bias_filler {
      type: "constant"
      value: 0
    }
  }
}
layer {
  name: "relu3"
  type: "ReLU"
  bottom: "conv3"
  top: "conv3"
}
layer {
  name: "conv4"
  type: "Convolution"
  bottom: "conv3"
  top: "conv4"
  param {
    lr_mult: 1
    decay_mult: 1
  }
  param {
    lr_mult: 2
    decay_mult: 0
  }
  convolution_param {
    num_output: 384
    pad: 1
    kernel_size: 3
    group: 2
    weight_filler {
      type: "gaussian"
      std: 0.01
    }
    bias_filler {
      type: "constant"
      value: 1
    }
  }
}
layer {
  name: "relu4"
  type: "ReLU"
  bottom: "conv4"
  top: "conv4"
}
layer {
  name: "conv5"
  type: "Convolution"
  bottom: "conv4"
  top: "conv5"
  param {
    lr_mult: 1
    decay_mult: 1
  }
  param {
    lr_mult: 2
    decay_mult: 0
  }
  convolution_param {
    num_output: 256
    pad: 1
    kernel_size: 3
    group: 2
    weight_filler {
      type: "gaussian"
      std: 0.01
    }
    bias_filler {
      type: "constant"
      value: 1
    }
  }
}
layer {
  name: "relu5"
  type: "ReLU"
  bottom: "conv5"
  top: "conv5"
}
layer {
  name: "pool5"
  type: "Pooling"
  bottom: "conv5"
  top: "pool5"
  pooling_param {
    pool: MAX
    kernel_size: 3
    stride: 2
  }
}
layer {
  name: "fc6"
  type: "InnerProduct"
  bottom: "pool5"
  top: "fc6"
  param {
    lr_mult: 1
    decay_mult: 1
  }
  param {
    lr_mult: 2
    decay_mult: 0
  }
  inner_product_param {
    num_output: 4096
    weight_filler {
      type: "gaussian"
      std: 0.005
    }
    bias_filler {
      type: "constant"
      value: 1
    }
  }
}
layer {
  name: "relu6"
  type: "ReLU"
  bottom: "fc6"
  top: "fc6"
}
layer {
  name: "drop6"
  type: "Dropout"
  bottom: "fc6"
  top: "fc6"
  dropout_param {
    dropout_ratio: 0.5
  }
}
layer {
  name: "fc7"
  type: "InnerProduct"
  bottom: "fc6"
  top: "fc7"
  param {
    lr_mult: 1
    decay_mult: 1
  }
  param {
    lr_mult: 2
    decay_mult: 0
  }
  inner_product_param {
    num_output: 4096
    weight_filler {
      type: "gaussian"
      std: 0.005
    }
    bias_filler {
      type: "constant"
      value: 1
    }
  }
}
layer {
  name: "relu7"
  type: "ReLU"
  bottom: "fc7"
  top: "fc7"
}
layer {
  name: "drop7"
  type: "Dropout"
  bottom: "fc7"
  top: "fc7"
  dropout_param {
    dropout_ratio: 0.5
  }
}
layer {
  name: "fc8_emotion6"
  type: "InnerProduct"
  bottom: "fc7"
  top: "fc8_emotion6"
  param {
    lr_mult: 10
    decay_mult: 1
  }
  param {
    lr_mult: 20
    decay_mult: 0
  }
  inner_product_param {
    num_output: 2
    weight_filler {
      type: "gaussian"
      std: 0.01
    }
    bias_filler {
      type: "constant"
      value: 0
    }
  }
}
layer {
  name: "accuracy"
  type: "Accuracy"
  bottom: "fc8_emotion6"
  bottom: "label"
  top: "accuracy"
  include {
    phase: TEST
  }
}
layer {
  name: "loss"
  type: "SoftmaxWithLoss"
  bottom: "fc8_emotion6"
  bottom: "label"
  top: "loss"
}
I0621 20:52:42.481530  3435 layer_factory.hpp:77] Creating layer data
I0621 20:52:42.481544  3435 net.cpp:91] Creating Layer data
I0621 20:52:42.481555  3435 net.cpp:399] data -> data
I0621 20:52:42.481564  3435 net.cpp:399] data -> label
I0621 20:52:42.481570  3435 data_transformer.cpp:25] Loading mean file from: places205.imagenet_mean.binaryproto
I0621 20:52:42.483150  3435 image_data_layer.cpp:38] Opening file em6_posneg_test.txt
I0621 20:52:42.486201  3435 image_data_layer.cpp:58] A total of 397 images.
I0621 20:52:42.493582  3435 image_data_layer.cpp:85] output data size: 50,3,227,227
I0621 20:52:42.567497  3435 net.cpp:141] Setting up data
I0621 20:52:42.567528  3435 net.cpp:148] Top shape: 50 3 227 227 (7729350)
I0621 20:52:42.567533  3435 net.cpp:148] Top shape: 50 (50)
I0621 20:52:42.567538  3435 net.cpp:156] Memory required for data: 30917600
I0621 20:52:42.567545  3435 layer_factory.hpp:77] Creating layer label_data_1_split
I0621 20:52:42.567559  3435 net.cpp:91] Creating Layer label_data_1_split
I0621 20:52:42.567564  3435 net.cpp:425] label_data_1_split <- label
I0621 20:52:42.567574  3435 net.cpp:399] label_data_1_split -> label_data_1_split_0
I0621 20:52:42.567584  3435 net.cpp:399] label_data_1_split -> label_data_1_split_1
I0621 20:52:42.567714  3435 net.cpp:141] Setting up label_data_1_split
I0621 20:52:42.567724  3435 net.cpp:148] Top shape: 50 (50)
I0621 20:52:42.567729  3435 net.cpp:148] Top shape: 50 (50)
I0621 20:52:42.567733  3435 net.cpp:156] Memory required for data: 30918000
I0621 20:52:42.567736  3435 layer_factory.hpp:77] Creating layer conv1
I0621 20:52:42.567751  3435 net.cpp:91] Creating Layer conv1
I0621 20:52:42.567755  3435 net.cpp:425] conv1 <- data
I0621 20:52:42.567762  3435 net.cpp:399] conv1 -> conv1
I0621 20:52:42.569525  3435 net.cpp:141] Setting up conv1
I0621 20:52:42.569542  3435 net.cpp:148] Top shape: 50 96 55 55 (14520000)
I0621 20:52:42.569547  3435 net.cpp:156] Memory required for data: 88998000
I0621 20:52:42.569560  3435 layer_factory.hpp:77] Creating layer relu1
I0621 20:52:42.569567  3435 net.cpp:91] Creating Layer relu1
I0621 20:52:42.569572  3435 net.cpp:425] relu1 <- conv1
I0621 20:52:42.569577  3435 net.cpp:386] relu1 -> conv1 (in-place)
I0621 20:52:42.569902  3435 net.cpp:141] Setting up relu1
I0621 20:52:42.569916  3435 net.cpp:148] Top shape: 50 96 55 55 (14520000)
I0621 20:52:42.569921  3435 net.cpp:156] Memory required for data: 147078000
I0621 20:52:42.569924  3435 layer_factory.hpp:77] Creating layer pool1
I0621 20:52:42.569934  3435 net.cpp:91] Creating Layer pool1
I0621 20:52:42.569938  3435 net.cpp:425] pool1 <- conv1
I0621 20:52:42.569946  3435 net.cpp:399] pool1 -> pool1
I0621 20:52:42.570000  3435 net.cpp:141] Setting up pool1
I0621 20:52:42.570008  3435 net.cpp:148] Top shape: 50 96 27 27 (3499200)
I0621 20:52:42.570013  3435 net.cpp:156] Memory required for data: 161074800
I0621 20:52:42.570016  3435 layer_factory.hpp:77] Creating layer norm1
I0621 20:52:42.570024  3435 net.cpp:91] Creating Layer norm1
I0621 20:52:42.570029  3435 net.cpp:425] norm1 <- pool1
I0621 20:52:42.570034  3435 net.cpp:399] norm1 -> norm1
I0621 20:52:42.570260  3435 net.cpp:141] Setting up norm1
I0621 20:52:42.570271  3435 net.cpp:148] Top shape: 50 96 27 27 (3499200)
I0621 20:52:42.570273  3435 net.cpp:156] Memory required for data: 175071600
I0621 20:52:42.570277  3435 layer_factory.hpp:77] Creating layer conv2
I0621 20:52:42.570288  3435 net.cpp:91] Creating Layer conv2
I0621 20:52:42.570292  3435 net.cpp:425] conv2 <- norm1
I0621 20:52:42.570299  3435 net.cpp:399] conv2 -> conv2
I0621 20:52:42.576177  3435 net.cpp:141] Setting up conv2
I0621 20:52:42.576195  3435 net.cpp:148] Top shape: 50 256 27 27 (9331200)
I0621 20:52:42.576198  3435 net.cpp:156] Memory required for data: 212396400
I0621 20:52:42.576216  3435 layer_factory.hpp:77] Creating layer relu2
I0621 20:52:42.576236  3435 net.cpp:91] Creating Layer relu2
I0621 20:52:42.576241  3435 net.cpp:425] relu2 <- conv2
I0621 20:52:42.576247  3435 net.cpp:386] relu2 -> conv2 (in-place)
I0621 20:52:42.576444  3435 net.cpp:141] Setting up relu2
I0621 20:52:42.576454  3435 net.cpp:148] Top shape: 50 256 27 27 (9331200)
I0621 20:52:42.576457  3435 net.cpp:156] Memory required for data: 249721200
I0621 20:52:42.576462  3435 layer_factory.hpp:77] Creating layer pool2
I0621 20:52:42.576470  3435 net.cpp:91] Creating Layer pool2
I0621 20:52:42.576474  3435 net.cpp:425] pool2 <- conv2
I0621 20:52:42.576480  3435 net.cpp:399] pool2 -> pool2
I0621 20:52:42.576532  3435 net.cpp:141] Setting up pool2
I0621 20:52:42.576540  3435 net.cpp:148] Top shape: 50 256 13 13 (2163200)
I0621 20:52:42.576544  3435 net.cpp:156] Memory required for data: 258374000
I0621 20:52:42.576547  3435 layer_factory.hpp:77] Creating layer norm2
I0621 20:52:42.576555  3435 net.cpp:91] Creating Layer norm2
I0621 20:52:42.576558  3435 net.cpp:425] norm2 <- pool2
I0621 20:52:42.576563  3435 net.cpp:399] norm2 -> norm2
I0621 20:52:42.586359  3435 net.cpp:141] Setting up norm2
I0621 20:52:42.586376  3435 net.cpp:148] Top shape: 50 256 13 13 (2163200)
I0621 20:52:42.586380  3435 net.cpp:156] Memory required for data: 267026800
I0621 20:52:42.586385  3435 layer_factory.hpp:77] Creating layer conv3
I0621 20:52:42.586395  3435 net.cpp:91] Creating Layer conv3
I0621 20:52:42.586400  3435 net.cpp:425] conv3 <- norm2
I0621 20:52:42.586407  3435 net.cpp:399] conv3 -> conv3
I0621 20:52:42.598335  3435 net.cpp:141] Setting up conv3
I0621 20:52:42.598358  3435 net.cpp:148] Top shape: 50 384 13 13 (3244800)
I0621 20:52:42.598362  3435 net.cpp:156] Memory required for data: 280006000
I0621 20:52:42.598379  3435 layer_factory.hpp:77] Creating layer relu3
I0621 20:52:42.598388  3435 net.cpp:91] Creating Layer relu3
I0621 20:52:42.598393  3435 net.cpp:425] relu3 <- conv3
I0621 20:52:42.598399  3435 net.cpp:386] relu3 -> conv3 (in-place)
I0621 20:52:42.598593  3435 net.cpp:141] Setting up relu3
I0621 20:52:42.598603  3435 net.cpp:148] Top shape: 50 384 13 13 (3244800)
I0621 20:52:42.598606  3435 net.cpp:156] Memory required for data: 292985200
I0621 20:52:42.598610  3435 layer_factory.hpp:77] Creating layer conv4
I0621 20:52:42.598621  3435 net.cpp:91] Creating Layer conv4
I0621 20:52:42.598625  3435 net.cpp:425] conv4 <- conv3
I0621 20:52:42.598633  3435 net.cpp:399] conv4 -> conv4
I0621 20:52:42.608321  3435 net.cpp:141] Setting up conv4
I0621 20:52:42.608340  3435 net.cpp:148] Top shape: 50 384 13 13 (3244800)
I0621 20:52:42.608343  3435 net.cpp:156] Memory required for data: 305964400
I0621 20:52:42.608351  3435 layer_factory.hpp:77] Creating layer relu4
I0621 20:52:42.608360  3435 net.cpp:91] Creating Layer relu4
I0621 20:52:42.608364  3435 net.cpp:425] relu4 <- conv4
I0621 20:52:42.608369  3435 net.cpp:386] relu4 -> conv4 (in-place)
I0621 20:52:42.608676  3435 net.cpp:141] Setting up relu4
I0621 20:52:42.608688  3435 net.cpp:148] Top shape: 50 384 13 13 (3244800)
I0621 20:52:42.608692  3435 net.cpp:156] Memory required for data: 318943600
I0621 20:52:42.608696  3435 layer_factory.hpp:77] Creating layer conv5
I0621 20:52:42.608707  3435 net.cpp:91] Creating Layer conv5
I0621 20:52:42.608711  3435 net.cpp:425] conv5 <- conv4
I0621 20:52:42.608718  3435 net.cpp:399] conv5 -> conv5
I0621 20:52:42.615674  3435 net.cpp:141] Setting up conv5
I0621 20:52:42.615689  3435 net.cpp:148] Top shape: 50 256 13 13 (2163200)
I0621 20:52:42.615694  3435 net.cpp:156] Memory required for data: 327596400
I0621 20:52:42.615705  3435 layer_factory.hpp:77] Creating layer relu5
I0621 20:52:42.615711  3435 net.cpp:91] Creating Layer relu5
I0621 20:52:42.615715  3435 net.cpp:425] relu5 <- conv5
I0621 20:52:42.615721  3435 net.cpp:386] relu5 -> conv5 (in-place)
I0621 20:52:42.615901  3435 net.cpp:141] Setting up relu5
I0621 20:52:42.615911  3435 net.cpp:148] Top shape: 50 256 13 13 (2163200)
I0621 20:52:42.615914  3435 net.cpp:156] Memory required for data: 336249200
I0621 20:52:42.615936  3435 layer_factory.hpp:77] Creating layer pool5
I0621 20:52:42.615947  3435 net.cpp:91] Creating Layer pool5
I0621 20:52:42.615949  3435 net.cpp:425] pool5 <- conv5
I0621 20:52:42.615955  3435 net.cpp:399] pool5 -> pool5
I0621 20:52:42.616008  3435 net.cpp:141] Setting up pool5
I0621 20:52:42.616014  3435 net.cpp:148] Top shape: 50 256 6 6 (460800)
I0621 20:52:42.616017  3435 net.cpp:156] Memory required for data: 338092400
I0621 20:52:42.616020  3435 layer_factory.hpp:77] Creating layer fc6
I0621 20:52:42.616029  3435 net.cpp:91] Creating Layer fc6
I0621 20:52:42.616032  3435 net.cpp:425] fc6 <- pool5
I0621 20:52:42.616037  3435 net.cpp:399] fc6 -> fc6
I0621 20:52:42.959470  3435 net.cpp:141] Setting up fc6
I0621 20:52:42.959497  3435 net.cpp:148] Top shape: 50 4096 (204800)
I0621 20:52:42.959501  3435 net.cpp:156] Memory required for data: 338911600
I0621 20:52:42.959509  3435 layer_factory.hpp:77] Creating layer relu6
I0621 20:52:42.959517  3435 net.cpp:91] Creating Layer relu6
I0621 20:52:42.959522  3435 net.cpp:425] relu6 <- fc6
I0621 20:52:42.959527  3435 net.cpp:386] relu6 -> fc6 (in-place)
I0621 20:52:42.959884  3435 net.cpp:141] Setting up relu6
I0621 20:52:42.959894  3435 net.cpp:148] Top shape: 50 4096 (204800)
I0621 20:52:42.959897  3435 net.cpp:156] Memory required for data: 339730800
I0621 20:52:42.959900  3435 layer_factory.hpp:77] Creating layer drop6
I0621 20:52:42.959906  3435 net.cpp:91] Creating Layer drop6
I0621 20:52:42.959909  3435 net.cpp:425] drop6 <- fc6
I0621 20:52:42.959913  3435 net.cpp:386] drop6 -> fc6 (in-place)
I0621 20:52:42.959944  3435 net.cpp:141] Setting up drop6
I0621 20:52:42.959949  3435 net.cpp:148] Top shape: 50 4096 (204800)
I0621 20:52:42.959950  3435 net.cpp:156] Memory required for data: 340550000
I0621 20:52:42.959954  3435 layer_factory.hpp:77] Creating layer fc7
I0621 20:52:42.959959  3435 net.cpp:91] Creating Layer fc7
I0621 20:52:42.959962  3435 net.cpp:425] fc7 <- fc6
I0621 20:52:42.959966  3435 net.cpp:399] fc7 -> fc7
I0621 20:52:43.105944  3435 net.cpp:141] Setting up fc7
I0621 20:52:43.105969  3435 net.cpp:148] Top shape: 50 4096 (204800)
I0621 20:52:43.105973  3435 net.cpp:156] Memory required for data: 341369200
I0621 20:52:43.105980  3435 layer_factory.hpp:77] Creating layer relu7
I0621 20:52:43.105988  3435 net.cpp:91] Creating Layer relu7
I0621 20:52:43.105993  3435 net.cpp:425] relu7 <- fc7
I0621 20:52:43.105998  3435 net.cpp:386] relu7 -> fc7 (in-place)
I0621 20:52:43.106190  3435 net.cpp:141] Setting up relu7
I0621 20:52:43.106199  3435 net.cpp:148] Top shape: 50 4096 (204800)
I0621 20:52:43.106201  3435 net.cpp:156] Memory required for data: 342188400
I0621 20:52:43.106204  3435 layer_factory.hpp:77] Creating layer drop7
I0621 20:52:43.106209  3435 net.cpp:91] Creating Layer drop7
I0621 20:52:43.106212  3435 net.cpp:425] drop7 <- fc7
I0621 20:52:43.106216  3435 net.cpp:386] drop7 -> fc7 (in-place)
I0621 20:52:43.106243  3435 net.cpp:141] Setting up drop7
I0621 20:52:43.106248  3435 net.cpp:148] Top shape: 50 4096 (204800)
I0621 20:52:43.106251  3435 net.cpp:156] Memory required for data: 343007600
I0621 20:52:43.106253  3435 layer_factory.hpp:77] Creating layer fc8_emotion6
I0621 20:52:43.106259  3435 net.cpp:91] Creating Layer fc8_emotion6
I0621 20:52:43.106262  3435 net.cpp:425] fc8_emotion6 <- fc7
I0621 20:52:43.106267  3435 net.cpp:399] fc8_emotion6 -> fc8_emotion6
I0621 20:52:43.106422  3435 net.cpp:141] Setting up fc8_emotion6
I0621 20:52:43.106429  3435 net.cpp:148] Top shape: 50 2 (100)
I0621 20:52:43.106431  3435 net.cpp:156] Memory required for data: 343008000
I0621 20:52:43.106436  3435 layer_factory.hpp:77] Creating layer fc8_emotion6_fc8_emotion6_0_split
I0621 20:52:43.106441  3435 net.cpp:91] Creating Layer fc8_emotion6_fc8_emotion6_0_split
I0621 20:52:43.106444  3435 net.cpp:425] fc8_emotion6_fc8_emotion6_0_split <- fc8_emotion6
I0621 20:52:43.106448  3435 net.cpp:399] fc8_emotion6_fc8_emotion6_0_split -> fc8_emotion6_fc8_emotion6_0_split_0
I0621 20:52:43.106453  3435 net.cpp:399] fc8_emotion6_fc8_emotion6_0_split -> fc8_emotion6_fc8_emotion6_0_split_1
I0621 20:52:43.106503  3435 net.cpp:141] Setting up fc8_emotion6_fc8_emotion6_0_split
I0621 20:52:43.106508  3435 net.cpp:148] Top shape: 50 2 (100)
I0621 20:52:43.106510  3435 net.cpp:148] Top shape: 50 2 (100)
I0621 20:52:43.106513  3435 net.cpp:156] Memory required for data: 343008800
I0621 20:52:43.106515  3435 layer_factory.hpp:77] Creating layer accuracy
I0621 20:52:43.106520  3435 net.cpp:91] Creating Layer accuracy
I0621 20:52:43.106523  3435 net.cpp:425] accuracy <- fc8_emotion6_fc8_emotion6_0_split_0
I0621 20:52:43.106528  3435 net.cpp:425] accuracy <- label_data_1_split_0
I0621 20:52:43.106531  3435 net.cpp:399] accuracy -> accuracy
…
